…
    4, ''monitor'': ''val/rec_loss'', ''ddconfig'': {''double_z'': True, ''z_channels'':
    4, ''resolution'': 512, ''in_channels'': 3, ''out_ch'': 3, ''ch'': 128, ''ch_mult'':
    [1, 2, 4, 4], ''num_res_blocks'': 2, ''attn_resolutions'': [], ''dropout'': 0.0},
    ''lossconfig'': {''target'': ''torch.nn.Identity''}}}, ''cond_stage_config'':
    {''target'': ''lvdm.modules.encoders.condition.FrozenOpenCLIPEmbedder'', ''params'':
    {''freeze'': True, ''layer'': ''penultimate''}}}}'
mmg_model:
  desc: null
  value: "LatentDiffusion(\n  (model): DiffusionWrapper(\n    (diffusion_model): UNetModel(\n\
    \      (time_embed): Sequential(\n        (0): Linear(in_features=320, out_features=1280,\
    \ bias=True)\n        (1): SiLU()\n        (2): Linear(in_features=1280, out_features=1280,\
    \ bias=True)\n      )\n      (fps_embedding): Sequential(\n        (0): Linear(in_features=320,\
    \ out_features=1280, bias=True)\n        (1): SiLU()\n        (2): Linear(in_features=1280,\
    \ out_features=1280, bias=True)\n      )\n      (input_blocks): ModuleList(\n\
    \        (0): TimestepEmbedSequential(\n          (0): Conv2d(4, 320, kernel_size=(3,\
    \ 3), stride=(1, 1), padding=(1, 1))\n        )\n        (1-2): 2 x TimestepEmbedSequential(\n\
    \          (0): ResBlock(\n            (in_layers): Sequential(\n            \
    \  (0): GroupNormSpecific(32, 320, eps=1e-05, affine=True)\n              (1):\
    \ SiLU()\n              (2): Conv2d(320, 320, kernel_size=(3, 3), stride=(1, 1),\
    \ padding=(1, 1))\n            )\n            (h_upd): Identity()\n          \
    \  (x_upd): Identity()\n            (emb_layers): Sequential(\n              (0):\
    \ SiLU()\n              (1): Linear(in_features=1280, out_features=320, bias=True)\n\
    \            )\n            (out_layers): Sequential(\n              (0): GroupNormSpecific(32,\
    \ 320, eps=1e-05, affine=True)\n              (1): SiLU()\n              (2):\
    \ Dropout(p=0.0, inplace=False)\n              (3): Conv2d(320, 320, kernel_size=(3,\
    \ 3), stride=(1, 1), padding=(1, 1))\n            )\n            (skip_connection):\
    \ Identity()\n            (temopral_conv): TemporalConvBlock(\n              (conv1):\
    \ Sequential(\n                (0): GroupNorm(32, 320, eps=1e-05, affine=True)\n\
    \                (1): SiLU()\n                (2): Conv3d(320, 320, kernel_size=(3,\
    \ 1, 1), stride=(1, 1, 1), padding=(1, 0, 0))\n              )\n             \
    \ (conv2): Sequential(\n                (0): GroupNorm(32, 320, eps=1e-05, affine=True)\n\
    \                (1): SiLU()\n                (2): Dropout(p=0.1, inplace=False)\n\
    \                (3): Conv3d(320, 320, kernel_size=(3, 1, 1), stride=(1, 1, 1),\
    \ padding=(1, 0, 0))\n              )\n              (conv3): Sequential(\n  \
    \              (0): GroupNorm(32, 320, eps=1e-05, affine=True)\n             \
    \   (1): SiLU()\n                (2): Dropout(p=0.1, inplace=False)\n        \
    \        (3): Conv3d(320, 320, kernel_size=(3, 1, 1), stride=(1, 1, 1), padding=(1,\
    \ 0, 0))\n              )\n              (conv4): Sequential(\n              \
    \  (0): GroupNorm(32, 320, eps=1e-05, affine=True)\n                (1): SiLU()\n\
    \                (2): Dropout(p=0.1, inplace=False)\n                (3): Conv3d(320,\
    \ 320, kernel_size=(3, 1, 1), stride=(1, 1, 1), padding=(1, 0, 0))\n         \
    \     )\n            )\n          )\n          (1): SpatialTransformer(\n    \
    \        (norm): GroupNorm(32, 320, eps=1e-06, affine=True)\n            (proj_in):\
    \ Linear(in_features=320, out_features=320, bias=True)\n            (transformer_blocks):\
    \ ModuleList(\n              (0): BasicTransformerBlock(\n                (attn1):\
    \ CrossAttention(\n                  (to_q): Linear(in_features=320, out_features=320,\
    \ bias=False)\n                  (to_k): Linear(in_features=320, out_features=320,\
    \ bias=False)\n                  (to_v): Linear(in_features=320, out_features=320,\
    \ bias=False)\n                  (to_out): Sequential(\n                    (0):\
    \ Linear(in_features=320, out_features=320, bias=True)\n                    (1):\
    \ Dropout(p=0.0, inplace=False)\n                  )\n                )\n    \
    \            (ff): FeedForward(\n                  (net): Sequential(\n      \
    \              (0): GEGLU(\n                      (proj): Linear(in_features=320,\
    \ out_features=2560, bias=True)\n                    )\n                    (1):\
    \ Dropout(p=0.0, inplace=False)\n                    (2): Linear(in_features=1280,\
    \ out_features=320, bias=True)\n                  )\n                )\n     \
    \           (attn2): CrossAttention(\n                  (to_q): Linear(in_features=320,\
    \ out_features=320, bias=False)\n                  (to_k): Linear(in_features=1024,\
    \ out_features=320, bias=False)\n                  (to_v): Linear(in_features=1024,\
    \ out_features=320, bias=False)\n                  (to_out): Sequential(\n   \
    \                 (0): Linear(in_features=320, out_features=320, bias=True)\n\
    \                    (1): Dropout(p=0.0, inplace=False)\n                  )\n\
    \                )\n                (norm1): LayerNorm((320,), eps=1e-05, elementwise_affine=True)\n\
    \                (norm2): LayerNorm((320,), eps=1e-05, elementwise_affine=True)\n\
    \                (norm3): LayerNorm((320,), eps=1e-05, elementwise_affine=True)\n\
    \              )\n            )\n            (proj_out): Linear(in_features=320,\
    \ out_features=320, bias=True)\n          )\n          (2): TemporalTransformer(\n\
    \            (norm): GroupNorm(32, 320, eps=1e-06, affine=True)\n            (proj_in):\
    \ Linear(in_features=320, out_features=320, bias=True)\n            (transformer_blocks):\
    \ ModuleList(\n              (0): BasicTransformerBlock(\n                (attn1):\
    \ CrossAttention(\n                  (to_q): Linear(in_features=320, out_features=320,\
    \ bias=False)\n                  (to_k): Linear(in_features=320, out_features=320,\
    \ bias=False)\n                  (to_v): Linear(in_features=320, out_features=320,\
    \ bias=False)\n                  (to_out): Sequential(\n                    (0):\
    \ Linear(in_features=320, out_features=320, bias=True)\n                    (1):\
    \ Dropout(p=0.0, inplace=False)\n                  )\n                )\n    \
    \            (ff): FeedForward(\n                  (net): Sequential(\n      \
    \              (0): GEGLU(\n                      (proj): Linear(in_features=320,\
    \ out_features=2560, bias=True)\n                    )\n                    (1):\
    \ Dropout(p=0.0, inplace=False)\n                    (2): Linear(in_features=1280,\
    \ out_features=320, bias=True)\n                  )\n                )\n     \
    \           (attn2): CrossAttention(\n                  (to_q): Linear(in_features=320,\
    \ out_features=320, bias=False)\n                  (to_k): Linear(in_features=320,\
    \ out_features=320, bias=False)\n                  (to_v): Linear(in_features=320,\
    \ out_features=320, bias=False)\n                  (to_out): Sequential(\n   \
    \                 (0): Linear(in_features=320, out_features=320, bias=True)\n\
    \                    (1): Dropout(p=0.0, inplace=False)\n                  )\n\
    \                )\n                (norm1): LayerNorm((320,), eps=1e-05, elementwise_affine=True)\n\
    \                (norm2): LayerNorm((320,), eps=1e-05, elementwise_affine=True)\n\
    \                (norm3): LayerNorm((320,), eps=1e-05, elementwise_affine=True)\n\
    \              )\n            )\n            (proj_out): Linear(in_features=320,\
    \ out_features=320, bias=True)\n          )\n        )\n        (3): TimestepEmbedSequential(\n\
    \          (0): Downsample(\n            (op): Conv2d(320, 320, kernel_size=(3,\
    \ 3), stride=(2, 2), padding=(1, 1))\n          )\n        )\n        (4): TimestepEmbedSequential(\n\
    \          (0): ResBlock(\n            (in_layers): Sequential(\n            \
    \  (0): GroupNormSpecific(32, 320, eps=1e-05, affine=True)\n              (1):\
    \ SiLU()\n              (2): Conv2d(320, 640, kernel_size=(3, 3), stride=(1, 1),\
    \ padding=(1, 1))\n            )\n            (h_upd): Identity()\n          \
    \  (x_upd): Identity()\n            (emb_layers): Sequential(\n              (0):\
    \ SiLU()\n              (1): Linear(in_features=1280, out_features=640, bias=True)\n\
    \            )\n            (out_layers): Sequential(\n              (0): GroupNormSpecific(32,\
    \ 640, eps=1e-05, affine=True)\n              (1): SiLU()\n              (2):\
    \ Dropout(p=0.0, inplace=False)\n              (3): Conv2d(640, 640, kernel_size=(3,\
    \ 3), stride=(1, 1), padding=(1, 1))\n            )\n            (skip_connection):\
    \ Conv2d(320, 640, kernel_size=(1, 1), stride=(1, 1))\n            (temopral_conv):\
    \ TemporalConvBlock(\n              (conv1): Sequential(\n                (0):\
    \ GroupNorm(32, 640, eps=1e-05, affine=True)\n                (1): SiLU()\n  \
    \              (2): Conv3d(640, 640, kernel_size=(3, 1, 1), stride=(1, 1, 1),\
    \ padding=(1, 0, 0))\n              )\n              (conv2): Sequential(\n  \
    \              (0): GroupNorm(32, 640, eps=1e-05, affine=True)\n             \
    \   (1): SiLU()\n                (2): Dropout(p=0.1, inplace=False)\n        \
    \        (3): Conv3d(640, 640, kernel_size=(3, 1, 1), stride=(1, 1, 1), padding=(1,\
    \ 0, 0))\n              )\n              (conv3): Sequential(\n              \
    \  (0): GroupNorm(32, 640, eps=1e-05, affine=True)\n                (1): SiLU()\n\
    \                (2): Dropout(p=0.1, inplace=False)\n                (3): Conv3d(640,\
    \ 640, kernel_size=(3, 1, 1), stride=(1, 1, 1), padding=(1, 0, 0))\n         \
    \     )\n              (conv4): Sequential(\n                (0): GroupNorm(32,\
    \ 640, eps=1e-05, affine=True)\n                (1): SiLU()\n                (2):\
    \ Dropout(p=0.1, inplace=False)\n                (3): Conv3d(640, 640, kernel_size=(3,\
    \ 1, 1), stride=(1, 1, 1), padding=(1, 0, 0))\n              )\n            )\n\
    \          )\n          (1): SpatialTransformer(\n            (norm): GroupNorm(32,\
    \ 640, eps=1e-06, affine=True)\n            (proj_in): Linear(in_features=640,\
    \ out_features=640, bias=True)\n            (transformer_blocks): ModuleList(\n\
    \              (0): BasicTransformerBlock(\n                (attn1): CrossAttention(\n\
    \                  (to_q): Linear(in_features=640, out_features=640, bias=False)\n\
    \                  (to_k): Linear(in_features=640, out_features=640, bias=False)\n\
    \                  (to_v): Linear(in_features=640, out_features=640, bias=False)\n\
    \                  (to_out): Sequential(\n                    (0): Linear(in_features=640,\
    \ out_features=640, bias=True)\n                    (1): Dropout(p=0.0, inplace=False)\n\
    \                  )\n                )\n                (ff): FeedForward(\n\
    \                  (net): Sequential(\n                    (0): GEGLU(\n     \
    \                 (proj): Linear(in_features=640, out_features=5120, bias=True)\n\
    \                    )\n                    (1): Dropout(p=0.0, inplace=False)\n\
    \                    (2): Linear(in_features=2560, out_features=640, bias=True)\n\
    \                  )\n                )\n                (attn2): CrossAttention(\n\
    \                  (to_q): Linear(in_features=640, out_features=640, bias=False)\n\
    \                  (to_k): Linear(in_features=1024, out_features=640, bias=False)\n\
    \                  (to_v): Linear(in_features=1024, out_features=640, bias=False)\n\
    \                  (to_out): Sequential(\n                    (0): Linear(in_features=640,\
    \ out_features=640, bias=True)\n                    (1): Dropout(p=0.0, inplace=False)\n\
    \                  )\n                )\n                (norm1): LayerNorm((640,),\
    \ eps=1e-05, elementwise_affine=True)\n                (norm2): LayerNorm((640,),\
    \ eps=1e-05, elementwise_affine=True)\n                (norm3): LayerNorm((640,),\
    \ eps=1e-05, elementwise_affine=True)\n              )\n            )\n      \
    \      (proj_out): Linear(in_features=640, out_features=640, bias=True)\n    \
    \      )\n          (2): TemporalTransformer(\n            (norm): GroupNorm(32,\
    \ 640, eps=1e-06, affine=True)\n            (proj_in): Linear(in_features=640,\
    \ out_features=640, bias=True)\n            (transformer_blocks): ModuleList(\n\
    \              (0): BasicTransformerBlock(\n                (attn1): CrossAttention(\n\
    \                  (to_q): Linear(in_features=640, out_features=640, bias=False)\n\
    \                  (to_k): Linear(in_features=640, out_features=640, bias=False)\n\
    \                  (to_v): Linear(in_features=640, out_features=640, bias=False)\n\
    \                  (to_out): Sequential(\n                    (0): Linear(in_features=640,\
    \ out_features=640, bias=True)\n                    (1): Dropout(p=0.0, inplace=False)\n\
    \                  )\n                )\n                (ff): FeedForward(\n\
    \                  (net): Sequential(\n                    (0): GEGLU(\n     \
    \                 (proj): Linear(in_features=640, out_features=5120, bias=True)\n\
    \                    )\n                    (1): Dropout(p=0.0, inplace=False)\n\
    \                    (2): Linear(in_features=2560, out_features=640, bias=True)\n\
    \                  )\n                )\n                (attn2): CrossAttention(\n\
    \                  (to_q): Linear(in_features=640, out_features=640, bias=False)\n\
    \                  (to_k): Linear(in_features=640, out_features=640, bias=False)\n\
    \                  (to_v): Linear(in_features=640, out_features=640, bias=False)\n\
    \                  (to_out): Sequential(\n                    (0): Linear(in_features=640,\
    \ out_features=640, bias=True)\n                    (1): Dropout(p=0.0, inplace=False)\n\
    \                  )\n                )\n                (norm1): LayerNorm((640,),\
    \ eps=1e-05, elementwise_affine=True)\n                (norm2): LayerNorm((640,),\
    \ eps=1e-05, elementwise_affine=True)\n                (norm3): LayerNorm((640,),\
    \ eps=1e-05, elementwise_affine=True)\n              )\n            )\n      \
    \      (proj_out): Linear(in_features=640, out_features=640, bias=True)\n    \
    \      )\n        )\n        (5): TimestepEmbedSequential(\n          (0): ResBlock(\n\
    \            (in_layers): Sequential(\n              (0): GroupNormSpecific(32,\
    \ 640, eps=1e-05, affine=True)\n              (1): SiLU()\n              (2):\
    \ Conv2d(640, 640, kernel_size=(3, 3), stride=(1, 1), padding=(1, 1))\n      \
    \      )\n            (h_upd): Identity()\n            (x_upd): Identity()\n \
    \           (emb_layers): Sequential(\n              (0): SiLU()\n           \
    \   (1): Linear(in_features=1280, out_features=640, bias=True)\n            )\n\
    \            (out_layers): Sequential(\n              (0): GroupNormSpecific(32,\
    \ 640, eps=1e-05, affine=True)\n              (1): SiLU()\n              (2):\
    \ Dropout(p=0.0, inplace=False)\n              (3): Conv2d(640, 640, kernel_size=(3,\
    \ 3), stride=(1, 1), padding=(1, 1))\n            )\n            (skip_connection):\
    \ Identity()\n            (temopral_conv): TemporalConvBlock(\n              (conv1):\
    \ Sequential(\n                (0): GroupNorm(32, 640, eps=1e-05, affine=True)\n\
    \                (1): SiLU()\n                (2): Conv3d(640, 640, kernel_size=(3,\
    \ 1, 1), stride=(1, 1, 1), padding=(1, 0, 0))\n              )\n             \
    \ (conv2): Sequential(\n                (0): GroupNorm(32, 640, eps=1e-05, affine=True)\n\
    \                (1): SiLU()\n                (2): Dropout(p=0.1, inplace=False)\n\
    \                (3): Conv3d(640, 640, kernel_size=(3, 1, 1), stride=(1, 1, 1),\
    \ padding=(1, 0, 0))\n              )\n              (conv3): Sequential(\n  \
    \              (0): GroupNorm(32, 640, eps=1e-05, affine=True)\n             \
    \   (1): SiLU()\n                (2): Dropout(p=0.1, inplace=False)\n        \
    \        (3): Conv3d(640, 640, kernel_size=(3, 1, 1), stride=(1, 1, 1), padding=(1,\
    \ 0, 0))\n              )\n              (conv4): Sequential(\n              \
    \  (0): GroupNorm(32, 640, eps=1e-05, affine=True)\n                (1): SiLU()\n\
    \                (2): Dropout(p=0.1, inplace=False)\n                (3): Conv3d(640,\
    \ 640, kernel_size=(3, 1, 1), stride=(1, 1, 1), padding=(1, 0, 0))\n         \
    \     )\n            )\n          )\n          (1): SpatialTransformer(\n    \
    \        (norm): GroupNorm(32, 640, eps=1e-06, affine=True)\n            (proj_in):\
    \ Linear(in_features=640, out_features=640, bias=True)\n            (transformer_blocks):\
    \ ModuleList(\n              (0): BasicTransformerBlock(\n                (attn1):\
    \ CrossAttention(\n                  (to_q): Linear(in_features=640, out_features=640,\
    \ bias=False)\n                  (to_k): Linear(in_features=640, out_features=640,\
    \ bias=False)\n                  (to_v): Linear(in_features=640, out_features=640,\
    \ bias=False)\n                  (to_out): Sequential(\n                    (0):\
    \ Linear(in_features=640, out_features=640, bias=True)\n                    (1):\
    \ Dropout(p=0.0, inplace=False)\n                  )\n                )\n    \
    \            (ff): FeedForward(\n                  (net): Sequential(\n      \
    \              (0): GEGLU(\n                      (proj): Linear(in_features=640,\
    \ out_features=5120, bias=True)\n                    )\n                    (1):\
    \ Dropout(p=0.0, inplace=False)\n                    (2): Linear(in_features=2560,\
    \ out_features=640, bias=True)\n                  )\n                )\n     \
    \           (attn2): CrossAttention(\n                  (to_q): Linear(in_features=640,\
    \ out_features=640, bias=False)\n                  (to_k): Linear(in_features=1024,\
    \ out_features=640, bias=False)\n                  (to_v): Linear(in_features=1024,\
    \ out_features=640, bias=False)\n                  (to_out): Sequential(\n   \
    \                 (0): Linear(in_features=640, out_features=640, bias=True)\n\
    \                    (1): Dropout(p=0.0, inplace=False)\n                  )\n\
    \                )\n                (norm1): LayerNorm((640,), eps=1e-05, elementwise_affine=True)\n\
    \                (norm2): LayerNorm((640,), eps=1e-05, elementwise_affine=True)\n\
    \                (norm3): LayerNorm((640,), eps=1e-05, elementwise_affine=True)\n\
    \              )\n            )\n            (proj_out): Linear(in_features=640,\
    \ out_features=640, bias=True)\n          )\n          (2): TemporalTransformer(\n\
    \            (norm): GroupNorm(32, 640, eps=1e-06, affine=True)\n            (proj_in):\
    \ Linear(in_features=640, out_features=640, bias=True)\n            (transformer_blocks):\
    \ ModuleList(\n              (0): BasicTransformerBlock(\n                (attn1):\
    \ CrossAttention(\n                  (to_q): Linear(in_features=640, out_features=640,\
    \ bias=False)\n                  (to_k): Linear(in_features=640, out_features=640,\
    \ bias=False)\n                  (to_v): Linear(in_features=640, out_features=640,\
    \ bias=False)\n                  (to_out): Sequential(\n                    (0):\
    \ Linear(in_features=640, out_features=640, bias=True)\n                    (1):\
    \ Dropout(p=0.0, inplace=False)\n                  )\n                )\n    \
    \            (ff): FeedForward(\n                  (net): Sequential(\n      \
    \              (0): GEGLU(\n                      (proj): Linear(in_features=640,\
    \ out_features=5120, bias=True)\n                    )\n                    (1):\
    \ Dropout(p=0.0, inplace=False)\n                    (2): Linear(in_features=2560,\
    \ out_features=640, bias=True)\n                  )\n                )\n     \
    \           (attn2): CrossAttention(\n                  (to_q): Linear(in_features=640,\
    \ out_features=640, bias=False)\n                  (to_k): Linear(in_features=640,\
    \ out_features=640, bias=False)\n                  (to_v): Linear(in_features=640,\
    \ out_features=640, bias=False)\n                  (to_out): Sequential(\n   \
    \                 (0): Linear(in_features=640, out_features=640, bias=True)\n\
    \                    (1): Dropout(p=0.0, inplace=False)\n                  )\n\
    \                )\n                (norm1): LayerNorm((640,), eps=1e-05, elementwise_affine=True)\n\
    \                (norm2): LayerNorm((640,), eps=1e-05, elementwise_affine=True)\n\
    \                (norm3): LayerNorm((640,), eps=1e-05, elementwise_affine=True)\n\
    \              )\n            )\n            (proj_out): Linear(in_features=640,\
    \ out_features=640, bias=True)\n          )\n        )\n        (6): TimestepEmbedSequential(\n\
    \          (0): Downsample(\n            (op): Conv2d(640, 640, kernel_size=(3,\
    \ 3), stride=(2, 2), padding=(1, 1))\n          )\n        )\n        (7): TimestepEmbedSequential(\n\
    \          (0): ResBlock(\n            (in_layers): Sequential(\n            \
    \  (0): GroupNormSpecific(32, 640, eps=1e-05, affine=True)\n              (1):\
    \ SiLU()\n              (2): Conv2d(640, 1280, kernel_size=(3, 3), stride=(1,\
    \ 1), padding=(1, 1))\n            )\n            (h_upd): Identity()\n      \
    \      (x_upd): Identity()\n            (emb_layers): Sequential(\n          \
    \    (0): SiLU()\n              (1): Linear(in_features=1280, out_features=1280,\
    \ bias=True)\n            )\n            (out_layers): Sequential(\n         \
    \     (0): GroupNormSpecific(32, 1280, eps=1e-05, affine=True)\n             \
    \ (1): SiLU()\n              (2): Dropout(p=0.0, inplace=False)\n            \
    \  (3): Conv2d(1280, 1280, kernel_size=(3, 3), stride=(1, 1), padding=(1, 1))\n\
    \            )\n            (skip_connection): Conv2d(640, 1280, kernel_size=(1,\
    \ 1), stride=(1, 1))\n            (temopral_conv): TemporalConvBlock(\n      \
    \        (conv1): Sequential(\n                (0): GroupNorm(32, 1280, eps=1e-05,\
    \ affine=True)\n                (1): SiLU()\n                (2): Conv3d(1280,\
    \ 1280, kernel_size=(3, 1, 1), stride=(1, 1, 1), padding=(1, 0, 0))\n        \
    \      )\n              (conv2): Sequential(\n                (0): GroupNorm(32,\
    \ 1280, eps=1e-05, affine=True)\n                (1): SiLU()\n               \
    \ (2): Dropout(p=0.1, inplace=False)\n                (3): Conv3d(1280, 1280,\
    \ kernel_size=(3, 1, 1), stride=(1, 1, 1), padding=(1, 0, 0))\n              )\n\
    \              (conv3): Sequential(\n                (0): GroupNorm(32, 1280,\
    \ eps=1e-05, affine=True)\n                (1): SiLU()\n                (2): Dropout(p=0.1,\
    \ inplace=False)\n                (3): Conv3d(1280, 1280, kernel_size=(3, 1, 1),\
    \ stride=(1, 1, 1), padding=(1, 0, 0))\n              )\n              (conv4):\
    \ Sequential(\n                (0): GroupNorm(32, 1280, eps=1e-05, affine=True)\n\
    \                (1): SiLU()\n                (2): Dropout(p=0.1, inplace=False)\n\
    \                (3): Conv3d(1280, 1280, kernel_size=(3, 1, 1), stride=(1, 1,\
    \ 1), padding=(1, 0, 0))\n              )\n            )\n          )\n      \
    \    (1): SpatialTransformer(\n            (norm): GroupNorm(32, 1280, eps=1e-06,\
    \ affine=True)\n            (proj_in): Linear(in_features=1280, out_features=1280,\
    \ bias=True)\n            (transformer_blocks): ModuleList(\n              (0):\
    \ BasicTransformerBlock(\n                (attn1): CrossAttention(\n         \
    \         (to_q): Linear(in_features=1280, out_features=1280, bias=False)\n  \
    \                (to_k): Linear(in_features=1280, out_features=1280, bias=False)\n\
    \                  (to_v): Linear(in_features=1280, out_features=1280, bias=False)\n\
    \                  (to_out): Sequential(\n                    (0): Linear(in_features=1280,\
    \ out_features=1280, bias=True)\n                    (1): Dropout(p=0.0, inplace=False)\n\
    \                  )\n                )\n                (ff): FeedForward(\n\
    \                  (net): Sequential(\n                    (0): GEGLU(\n     \
    \                 (proj): Linear(in_features=1280, out_features=10240, bias=True)\n\
    \                    )\n                    (1): Dropout(p=0.0, inplace=False)\n\
    \                    (2): Linear(in_features=5120, out_features=1280, bias=True)\n\
    \                  )\n                )\n                (attn2): CrossAttention(\n\
    \                  (to_q): Linear(in_features=1280, out_features=1280, bias=False)\n\
    \                  (to_k): Linear(in_features=1024, out_features=1280, bias=False)\n\
    \                  (to_v): Linear(in_features=1024, out_features=1280, bias=False)\n\
    \                  (to_out): Sequential(\n                    (0): Linear(in_features=1280,\
    \ out_features=1280, bias=True)\n                    (1): Dropout(p=0.0, inplace=False)\n\
    \                  )\n                )\n                (norm1): LayerNorm((1280,),\
    \ eps=1e-05, elementwise_affine=True)\n                (norm2): LayerNorm((1280,),\
    \ eps=1e-05, elementwise_affine=True)\n                (norm3): LayerNorm((1280,),\
    \ eps=1e-05, elementwise_affine=True)\n              )\n            )\n      \
    \      (proj_out): Linear(in_features=1280, out_features=1280, bias=True)\n  \
    \        )\n          (2): TemporalTransformer(\n            (norm): GroupNorm(32,\
    \ 1280, eps=1e-06, affine=True)\n            (proj_in): Linear(in_features=1280,\
    \ out_features=1280, bias=True)\n            (transformer_blocks): ModuleList(\n\
    \              (0): BasicTransformerBlock(\n                (attn1): CrossAttention(\n\
    \                  (to_q): Linear(in_features=1280, out_features=1280, bias=False)\n\
    \                  (to_k): Linear(in_features=1280, out_features=1280, bias=False)\n\
    \                  (to_v): Linear(in_features=1280, out_features=1280, bias=False)\n\
    \                  (to_out): Sequential(\n                    (0): Linear(in_features=1280,\
    \ out_features=1280, bias=True)\n                    (1): Dropout(p=0.0, inplace=False)\n\
    \                  )\n                )\n                (ff): FeedForward(\n\
    \                  (net): Sequential(\n                    (0): GEGLU(\n     \
    \                 (proj): Linear(in_features=1280, out_features=10240, bias=True)\n\
    \                    )\n                    (1): Dropout(p=0.0, inplace=False)\n\
    \                    (2): Linear(in_features=5120, out_features=1280, bias=True)\n\
    \                  )\n                )\n                (attn2): CrossAttention(\n\
    \                  (to_q): Linear(in_features=1280, out_features=1280, bias=False)\n\
    \                  (to_k): Linear(in_features=1280, out_features=1280, bias=False)\n\
    \                  (to_v): Linear(in_features=1280, out_features=1280, bias=False)\n\
    \                  (to_out): Sequential(\n                    (0): Linear(in_features=1280,\
    \ out_features=1280, bias=True)\n                    (1): Dropout(p=0.0, inplace=False)\n\
    \                  )\n                )\n                (norm1): LayerNorm((1280,),\
    \ eps=1e-05, elementwise_affine=True)\n                (norm2): LayerNorm((1280,),\
    \ eps=1e-05, elementwise_affine=True)\n                (norm3): LayerNorm((1280,),\
    \ eps=1e-05, elementwise_affine=True)\n              )\n            )\n      \
    \      (proj_out): Linear(in_features=1280, out_features=1280, bias=True)\n  \
    \        )\n        )\n        (8): TimestepEmbedSequential(\n          (0): ResBlock(\n\
    \            (in_layers): Sequential(\n              (0): GroupNormSpecific(32,\
    \ 1280, eps=1e-05, affine=True)\n              (1): SiLU()\n              (2):\
    \ Conv2d(1280, 1280, kernel_size=(3, 3), stride=(1, 1), padding=(1, 1))\n    \
    \        )\n            (h_upd): Identity()\n            (x_upd): Identity()\n\
    \            (emb_layers): Sequential(\n              (0): SiLU()\n          \
    \    (1): Linear(in_features=1280, out_features=1280, bias=True)\n           \
    \ )\n            (out_layers): Sequential(\n              (0): GroupNormSpecific(32,\
    \ 1280, eps=1e-05, affine=True)\n              (1): SiLU()\n              (2):\
    \ Dropout(p=0.0, inplace=False)\n              (3): Conv2d(1280, 1280, kernel_size=(3,\
    \ 3), stride=(1, 1), padding=(1, 1))\n            )\n            (skip_connection):\
    \ Identity()\n            (temopral_conv): TemporalConvBlock(\n              (conv1):\
    \ Sequential(\n                (0): GroupNorm(32, 1280, eps=1e-05, affine=True)\n\
    \                (1): SiLU()\n                (2): Conv3d(1280, 1280, kernel_size=(3,\
    \ 1, 1), stride=(1, 1, 1), padding=(1, 0, 0))\n              )\n             \
    \ (conv2): Sequential(\n                (0): GroupNorm(32, 1280, eps=1e-05, affine=True)\n\
    \                (1): SiLU()\n                (2): Dropout(p=0.1, inplace=False)\n\
    \                (3): Conv3d(1280, 1280, kernel_size=(3, 1, 1), stride=(1, 1,\
    \ 1), padding=(1, 0, 0))\n              )\n              (conv3): Sequential(\n\
    \                (0): GroupNorm(32, 1280, eps=1e-05, affine=True)\n          \
    \      (1): SiLU()\n                (2): Dropout(p=0.1, inplace=False)\n     \
    \           (3): Conv3d(1280, 1280, kernel_size=(3, 1, 1), stride=(1, 1, 1), padding=(1,\
    \ 0, 0))\n              )\n              (conv4): Sequential(\n              \
    \  (0): GroupNorm(32, 1280, eps=1e-05, affine=True)\n                (1): SiLU()\n\
    \                (2): Dropout(p=0.1, inplace=False)\n                (3): Conv3d(1280,\
    \ 1280, kernel_size=(3, 1, 1), stride=(1, 1, 1), padding=(1, 0, 0))\n        \
    \      )\n            )\n          )\n          (1): SpatialTransformer(\n   \
    \         (norm): GroupNorm(32, 1280, eps=1e-06, affine=True)\n            (proj_in):\
    \ Linear(in_features=1280, out_features=1280, bias=True)\n            (transformer_blocks):\
    \ ModuleList(\n              (0): BasicTransformerBlock(\n                (attn1):\
    \ CrossAttention(\n                  (to_q): Linear(in_features=1280, out_features=1280,\
    \ bias=False)\n                  (to_k): Linear(in_features=1280, out_features=1280,\
    \ bias=False)\n                  (to_v): Linear(in_features=1280, out_features=1280,\
    \ bias=False)\n                  (to_out): Sequential(\n                    (0):\
    \ Linear(in_features=1280, out_features=1280, bias=True)\n                   \
    \ (1): Dropout(p=0.0, inplace=False)\n                  )\n                )\n\
    \                (ff): FeedForward(\n                  (net): Sequential(\n  \
    \                  (0): GEGLU(\n                      (proj): Linear(in_features=1280,\
    \ out_features=10240, bias=True)\n                    )\n                    (1):\
    \ Dropout(p=0.0, inplace=False)\n                    (2): Linear(in_features=5120,\
    \ out_features=1280, bias=True)\n                  )\n                )\n    \
    \            (attn2): CrossAttention(\n                  (to_q): Linear(in_features=1280,\
    \ out_features=1280, bias=False)\n                  (to_k): Linear(in_features=1024,\
    \ out_features=1280, bias=False)\n                  (to_v): Linear(in_features=1024,\
    \ out_features=1280, bias=False)\n                  (to_out): Sequential(\n  \
    \                  (0): Linear(in_features=1280, out_features=1280, bias=True)\n\
    \                    (1): Dropout(p=0.0, inplace=False)\n                  )\n\
    \                )\n                (norm1): LayerNorm((1280,), eps=1e-05, elementwise_affine=True)\n\
    \                (norm2): LayerNorm((1280,), eps=1e-05, elementwise_affine=True)\n\
    \                (norm3): LayerNorm((1280,), eps=1e-05, elementwise_affine=True)\n\
    \              )\n            )\n            (proj_out): Linear(in_features=1280,\
    \ out_features=1280, bias=True)\n          )\n          (2): TemporalTransformer(\n\
    \            (norm): GroupNorm(32, 1280, eps=1e-06, affine=True)\n           \
    \ (proj_in): Linear(in_features=1280, out_features=1280, bias=True)\n        \
    \    (transformer_blocks): ModuleList(\n              (0): BasicTransformerBlock(\n\
    \                (attn1): CrossAttention(\n                  (to_q): Linear(in_features=1280,\
    \ out_features=1280, bias=False)\n                  (to_k): Linear(in_features=1280,\
    \ out_features=1280, bias=False)\n                  (to_v): Linear(in_features=1280,\
    \ out_features=1280, bias=False)\n                  (to_out): Sequential(\n  \
    \                  (0): Linear(in_features=1280, out_features=1280, bias=True)\n\
    \                    (1): Dropout(p=0.0, inplace=False)\n                  )\n\
    \                )\n                (ff): FeedForward(\n                  (net):\
    \ Sequential(\n                    (0): GEGLU(\n                      (proj):\
    \ Linear(in_features=1280, out_features=10240, bias=True)\n                  \
    \  )\n                    (1): Dropout(p=0.0, inplace=False)\n               \
    \     (2): Linear(in_features=5120, out_features=1280, bias=True)\n          \
    \        )\n                )\n                (attn2): CrossAttention(\n    \
    \              (to_q): Linear(in_features=1280, out_features=1280, bias=False)\n\
    \                  (to_k): Linear(in_features=1280, out_features=1280, bias=False)\n\
    \                  (to_v): Linear(in_features=1280, out_features=1280, bias=False)\n\
    \                  (to_out): Sequential(\n                    (0): Linear(in_features=1280,\
    \ out_features=1280, bias=True)\n                    (1): Dropout(p=0.0, inplace=False)\n\
    \                  )\n                )\n                (norm1): LayerNorm((1280,),\
    \ eps=1e-05, elementwise_affine=True)\n                (norm2): LayerNorm((1280,),\
    \ eps=1e-05, elementwise_affine=True)\n                (norm3): LayerNorm((1280,),\
    \ eps=1e-05, elementwise_affine=True)\n              )\n            )\n      \
    \      (proj_out): Linear(in_features=1280, out_features=1280, bias=True)\n  \
    \        )\n        )\n        (9): TimestepEmbedSequential(\n          (0): Downsample(\n\
    \            (op): Conv2d(1280, 1280, kernel_size=(3, 3), stride=(2, 2), padding=(1,\
    \ 1))\n          )\n        )\n        (10-11): 2 x TimestepEmbedSequential(\n\
    \          (0): ResBlock(\n            (in_layers): Sequential(\n            \
    \  (0): GroupNormSpecific(32, 1280, eps=1e-05, affine=True)\n              (1):\
    \ SiLU()\n              (2): Conv2d(1280, 1280, kernel_size=(3, 3), stride=(1,\
    \ 1), padding=(1, 1))\n            )\n            (h_upd): Identity()\n      \
    \      (x_upd): Identity()\n            (emb_layers): Sequential(\n          \
    \    (0): SiLU()\n              (1): Linear(in_features=1280, out_features=1280,\
    \ bias=True)\n            )\n            (out_layers): Sequential(\n         \
    \     (0): GroupNormSpecific(32, 1280, eps=1e-05, affine=True)\n             \
    \ (1): SiLU()\n              (2): Dropout(p=0.0, inplace=False)\n            \
    \  (3): Conv2d(1280, 1280, kernel_size=(3, 3), stride=(1, 1), padding=(1, 1))\n\
    \            )\n            (skip_connection): Identity()\n            (temopral_conv):\
    \ TemporalConvBlock(\n              (conv1): Sequential(\n                (0):\
    \ GroupNorm(32, 1280, eps=1e-05, affine=True)\n                (1): SiLU()\n \
    \               (2): Conv3d(1280, 1280, kernel_size=(3, 1, 1), stride=(1, 1, 1),\
    \ padding=(1, 0, 0))\n              )\n              (conv2): Sequential(\n  \
    \              (0): GroupNorm(32, 1280, eps=1e-05, affine=True)\n            \
    \    (1): SiLU()\n                (2): Dropout(p=0.1, inplace=False)\n       \
    \         (3): Conv3d(1280, 1280, kernel_size=(3, 1, 1), stride=(1, 1, 1), padding=(1,\
    \ 0, 0))\n              )\n              (conv3): Sequential(\n              \
    \  (0): GroupNorm(32, 1280, eps=1e-05, affine=True)\n                (1): SiLU()\n\
    \                (2): Dropout(p=0.1, inplace=False)\n                (3): Conv3d(1280,\
    \ 1280, kernel_size=(3, 1, 1), stride=(1, 1, 1), padding=(1, 0, 0))\n        \
    \      )\n              (conv4): Sequential(\n                (0): GroupNorm(32,\
    \ 1280, eps=1e-05, affine=True)\n                (1): SiLU()\n               \
    \ (2): Dropout(p=0.1, inplace=False)\n                (3): Conv3d(1280, 1280,\
    \ kernel_size=(3, 1, 1), stride=(1, 1, 1), padding=(1, 0, 0))\n              )\n\
    \            )\n          )\n        )\n      )\n      (init_attn): TimestepEmbedSequential(\n\
    \        (0): TemporalTransformer(\n          (norm): GroupNorm(32, 320, eps=1e-06,\
    \ affine=True)\n          (proj_in): Conv1d(320, 512, kernel_size=(1,), stride=(1,))\n\
    \          (transformer_blocks): ModuleList(\n            (0): BasicTransformerBlock(\n\
    \              (attn1): CrossAttention(\n                (to_q): Linear(in_features=512,\
    \ out_features=512, bias=False)\n                (to_k): Linear(in_features=512,\
    \ out_features=512, bias=False)\n                (to_v): Linear(in_features=512,\
    \ out_features=512, bias=False)\n                (to_out): Sequential(\n     \
    \             (0): Linear(in_features=512, out_features=512, bias=True)\n    \
    \              (1): Dropout(p=0.0, inplace=False)\n                )\n       \
    \       )\n              (ff): FeedForward(\n                (net): Sequential(\n\
    \                  (0): GEGLU(\n                    (proj): Linear(in_features=512,\
    \ out_features=4096, bias=True)\n                  )\n                  (1): Dropout(p=0.0,\
    \ inplace=False)\n                  (2): Linear(in_features=2048, out_features=512,\
    \ bias=True)\n                )\n              )\n              (attn2): CrossAttention(\n\
    \                (to_q): Linear(in_features=512, out_features=512, bias=False)\n\
    \                (to_k): Linear(in_features=512, out_features=512, bias=False)\n\
    \                (to_v): Linear(in_features=512, out_features=512, bias=False)\n\
    \                (to_out): Sequential(\n                  (0): Linear(in_features=512,\
    \ out_features=512, bias=True)\n                  (1): Dropout(p=0.0, inplace=False)\n\
    \                )\n              )\n              (norm1): LayerNorm((512,),\
    \ eps=1e-05, elementwise_affine=True)\n              (norm2): LayerNorm((512,),\
    \ eps=1e-05, elementwise_affine=True)\n              (norm3): LayerNorm((512,),\
    \ eps=1e-05, elementwise_affine=True)\n            )\n          )\n          (proj_out):\
    \ Conv1d(512, 320, kernel_size=(1,), stride=(1,))\n        )\n      )\n      (middle_block):\
    \ TimestepEmbedSequential(\n        (0): ResBlock(\n          (in_layers): Sequential(\n\
    \            (0): GroupNormSpecific(32, 1280, eps=1e-05, affine=True)\n      \
    \      (1): SiLU()\n            (2): Conv2d(1280, 1280, kernel_size=(3, 3), stride=(1,\
    \ 1), padding=(1, 1))\n          )\n          (h_upd): Identity()\n          (x_upd):\
    \ Identity()\n          (emb_layers): Sequential(\n            (0): SiLU()\n \
    \           (1): Linear(in_features=1280, out_features=1280, bias=True)\n    \
    \      )\n          (out_layers): Sequential(\n            (0): GroupNormSpecific(32,\
    \ 1280, eps=1e-05, affine=True)\n            (1): SiLU()\n            (2): Dropout(p=0.0,\
    \ inplace=False)\n            (3): Conv2d(1280, 1280, kernel_size=(3, 3), stride=(1,\
    \ 1), padding=(1, 1))\n          )\n          (skip_connection): Identity()\n\
    \          (temopral_conv): TemporalConvBlock(\n            (conv1): Sequential(\n\
    \              (0): GroupNorm(32, 1280, eps=1e-05, affine=True)\n            \
    \  (1): SiLU()\n              (2): Conv3d(1280, 1280, kernel_size=(3, 1, 1), stride=(1,\
    \ 1, 1), padding=(1, 0, 0))\n            )\n            (conv2): Sequential(\n\
    \              (0): GroupNorm(32, 1280, eps=1e-05, affine=True)\n            \
    \  (1): SiLU()\n              (2): Dropout(p=0.1, inplace=False)\n           \
    \   (3): Conv3d(1280, 1280, kernel_size=(3, 1, 1), stride=(1, 1, 1), padding=(1,\
    \ 0, 0))\n            )\n            (conv3): Sequential(\n              (0):\
    \ GroupNorm(32, 1280, eps=1e-05, affine=True)\n              (1): SiLU()\n   \
    \           (2): Dropout(p=0.1, inplace=False)\n              (3): Conv3d(1280,\
    \ 1280, kernel_size=(3, 1, 1), stride=(1, 1, 1), padding=(1, 0, 0))\n        \
    \    )\n            (conv4): Sequential(\n              (0): GroupNorm(32, 1280,\
    \ eps=1e-05, affine=True)\n              (1): SiLU()\n              (2): Dropout(p=0.1,\
    \ inplace=False)\n              (3): Conv3d(1280, 1280, kernel_size=(3, 1, 1),\
    \ stride=(1, 1, 1), padding=(1, 0, 0))\n            )\n          )\n        )\n\
    \        (1): SpatialTransformer(\n          (norm): GroupNorm(32, 1280, eps=1e-06,\
    \ affine=True)\n          (proj_in): Linear(in_features=1280, out_features=1280,\
    \ bias=True)\n          (transformer_blocks): ModuleList(\n            (0): BasicTransformerBlock(\n\
    \              (attn1): CrossAttention(\n                (to_q): Linear(in_features=1280,\
    \ out_features=1280, bias=False)\n                (to_k): Linear(in_features=1280,\
    \ out_features=1280, bias=False)\n                (to_v): Linear(in_features=1280,\
    \ out_features=1280, bias=False)\n                (to_out): Sequential(\n    \
    \              (0): Linear(in_features=1280, out_features=1280, bias=True)\n \
    \                 (1): Dropout(p=0.0, inplace=False)\n                )\n    \
    \          )\n              (ff): FeedForward(\n                (net): Sequential(\n\
    \                  (0): GEGLU(\n                    (proj): Linear(in_features=1280,\
    \ out_features=10240, bias=True)\n                  )\n                  (1):\
    \ Dropout(p=0.0, inplace=False)\n                  (2): Linear(in_features=5120,\
    \ out_features=1280, bias=True)\n                )\n              )\n        \
    \      (attn2): CrossAttention(\n                (to_q): Linear(in_features=1280,\
    \ out_features=1280, bias=False)\n                (to_k): Linear(in_features=1024,\
    \ out_features=1280, bias=False)\n                (to_v): Linear(in_features=1024,\
    \ out_features=1280, bias=False)\n                (to_out): Sequential(\n    \
    \              (0): Linear(in_features=1280, out_features=1280, bias=True)\n \
    \                 (1): Dropout(p=0.0, inplace=False)\n                )\n    \
    \          )\n              (norm1): LayerNorm((1280,), eps=1e-05, elementwise_affine=True)\n\
    \              (norm2): LayerNorm((1280,), eps=1e-05, elementwise_affine=True)\n\
    \              (norm3): LayerNorm((1280,), eps=1e-05, elementwise_affine=True)\n\
    \            )\n          )\n          (proj_out): Linear(in_features=1280, out_features=1280,\
    \ bias=True)\n        )\n        (2): TemporalTransformer(\n          (norm):\
    \ GroupNorm(32, 1280, eps=1e-06, affine=True)\n          (proj_in): Linear(in_features=1280,\
    \ out_features=1280, bias=True)\n          (transformer_blocks): ModuleList(\n\
    \            (0): BasicTransformerBlock(\n              (attn1): CrossAttention(\n\
    \                (to_q): Linear(in_features=1280, out_features=1280, bias=False)\n\
    \                (to_k): Linear(in_features=1280, out_features=1280, bias=False)\n\
    \                (to_v): Linear(in_features=1280, out_features=1280, bias=False)\n\
    \                (to_out): Sequential(\n                  (0): Linear(in_features=1280,\
    \ out_features=1280, bias=True)\n                  (1): Dropout(p=0.0, inplace=False)\n\
    \                )\n              )\n              (ff): FeedForward(\n      \
    \          (net): Sequential(\n                  (0): GEGLU(\n               \
    \     (proj): Linear(in_features=1280, out_features=10240, bias=True)\n      \
    \            )\n                  (1): Dropout(p=0.0, inplace=False)\n       \
    \           (2): Linear(in_features=5120, out_features=1280, bias=True)\n    \
    \            )\n              )\n              (attn2): CrossAttention(\n    \
    \            (to_q): Linear(in_features=1280, out_features=1280, bias=False)\n\
    \                (to_k): Linear(in_features=1280, out_features=1280, bias=False)\n\
    \                (to_v): Linear(in_features=1280, out_features=1280, bias=False)\n\
    \                (to_out): Sequential(\n                  (0): Linear(in_features=1280,\
    \ out_features=1280, bias=True)\n                  (1): Dropout(p=0.0, inplace=False)\n\
    \                )\n              )\n              (norm1): LayerNorm((1280,),\
    \ eps=1e-05, elementwise_affine=True)\n              (norm2): LayerNorm((1280,),\
    \ eps=1e-05, elementwise_affine=True)\n              (norm3): LayerNorm((1280,),\
    \ eps=1e-05, elementwise_affine=True)\n            )\n          )\n          (proj_out):\
    \ Linear(in_features=1280, out_features=1280, bias=True)\n        )\n        (3):\
    \ ResBlock(\n          (in_layers): Sequential(\n            (0): GroupNormSpecific(32,\
    \ 1280, eps=1e-05, affine=True)\n            (1): SiLU()\n            (2): Conv2d(1280,\
    \ 1280, kernel_size=(3, 3), stride=(1, 1), padding=(1, 1))\n          )\n    \
    \      (h_upd): Identity()\n          (x_upd): Identity()\n          (emb_layers):\
    \ Sequential(\n            (0): SiLU()\n            (1): Linear(in_features=1280,\
    \ out_features=1280, bias=True)\n          )\n          (out_layers): Sequential(\n\
    \            (0): GroupNormSpecific(32, 1280, eps=1e-05, affine=True)\n      \
    \      (1): SiLU()\n            (2): Dropout(p=0.0, inplace=False)\n         \
    \   (3): Conv2d(1280, 1280, kernel_size=(3, 3), stride=(1, 1), padding=(1, 1))\n\
    \          )\n          (skip_connection): Identity()\n          (temopral_conv):\
    \ TemporalConvBlock(\n            (conv1): Sequential(\n              (0): GroupNorm(32,\
    \ 1280, eps=1e-05, affine=True)\n              (1): SiLU()\n              (2):\
    \ Conv3d(1280, 1280, kernel_size=(3, 1, 1), stride=(1, 1, 1), padding=(1, 0, 0))\n\
    \            )\n            (conv2): Sequential(\n              (0): GroupNorm(32,\
    \ 1280, eps=1e-05, affine=True)\n              (1): SiLU()\n              (2):\
    \ Dropout(p=0.1, inplace=False)\n              (3): Conv3d(1280, 1280, kernel_size=(3,\
    \ 1, 1), stride=(1, 1, 1), padding=(1, 0, 0))\n            )\n            (conv3):\
    \ Sequential(\n              (0): GroupNorm(32, 1280, eps=1e-05, affine=True)\n\
    \              (1): SiLU()\n              (2): Dropout(p=0.1, inplace=False)\n\
    \              (3): Conv3d(1280, 1280, kernel_size=(3, 1, 1), stride=(1, 1, 1),\
    \ padding=(1, 0, 0))\n            )\n            (conv4): Sequential(\n      \
    \        (0): GroupNorm(32, 1280, eps=1e-05, affine=True)\n              (1):\
    \ SiLU()\n              (2): Dropout(p=0.1, inplace=False)\n              (3):\
    \ Conv3d(1280, 1280, kernel_size=(3, 1, 1), stride=(1, 1, 1), padding=(1, 0, 0))\n\
    \            )\n          )\n        )\n      )\n      (output_blocks): ModuleList(\n\
    \        (0-1): 2 x TimestepEmbedSequential(\n          (0): ResBlock(\n     \
    \       (in_layers): Sequential(\n              (0): GroupNormSpecific(32, 2560,\
    \ eps=1e-05, affine=True)\n              (1): SiLU()\n              (2): Conv2d(2560,\
    \ 1280, kernel_size=(3, 3), stride=(1, 1), padding=(1, 1))\n            )\n  \
    \          (h_upd): Identity()\n            (x_upd): Identity()\n            (emb_layers):\
    \ Sequential(\n              (0): SiLU()\n              (1): Linear(in_features=1280,\
    \ out_features=1280, bias=True)\n            )\n            (out_layers): Sequential(\n\
    \              (0): GroupNormSpecific(32, 1280, eps=1e-05, affine=True)\n    \
    \          (1): SiLU()\n              (2): Dropout(p=0.0, inplace=False)\n   \
    \           (3): Conv2d(1280, 1280, kernel_size=(3, 3), stride=(1, 1), padding=(1,\
    \ 1))\n            )\n            (skip_connection): Conv2d(2560, 1280, kernel_size=(1,\
    \ 1), stride=(1, 1))\n            (temopral_conv): TemporalConvBlock(\n      \
    \        (conv1): Sequential(\n                (0): GroupNorm(32, 1280, eps=1e-05,\
    \ affine=True)\n                (1): SiLU()\n                (2): Conv3d(1280,\
    \ 1280, kernel_size=(3, 1, 1), stride=(1, 1, 1), padding=(1, 0, 0))\n        \
    \      )\n              (conv2): Sequential(\n                (0): GroupNorm(32,\
    \ 1280, eps=1e-05, affine=True)\n                (1): SiLU()\n               \
    \ (2): Dropout(p=0.1, inplace=False)\n                (3): Conv3d(1280, 1280,\
    \ kernel_size=(3, 1, 1), stride=(1, 1, 1), padding=(1, 0, 0))\n              )\n\
    \              (conv3): Sequential(\n                (0): GroupNorm(32, 1280,\
    \ eps=1e-05, affine=True)\n                (1): SiLU()\n                (2): Dropout(p=0.1,\
    \ inplace=False)\n                (3): Conv3d(1280, 1280, kernel_size=(3, 1, 1),\
    \ stride=(1, 1, 1), padding=(1, 0, 0))\n              )\n              (conv4):\
    \ Sequential(\n                (0): GroupNorm(32, 1280, eps=1e-05, affine=True)\n\
    \                (1): SiLU()\n                (2): Dropout(p=0.1, inplace=False)\n\
    \                (3): Conv3d(1280, 1280, kernel_size=(3, 1, 1), stride=(1, 1,\
    \ 1), padding=(1, 0, 0))\n              )\n            )\n          )\n      \
    \  )\n        (2): TimestepEmbedSequential(\n          (0): ResBlock(\n      \
    \      (in_layers): Sequential(\n              (0): GroupNormSpecific(32, 2560,\
    \ eps=1e-05, affine=True)\n              (1): SiLU()\n              (2): Conv2d(2560,\
    \ 1280, kernel_size=(3, 3), stride=(1, 1), padding=(1, 1))\n            )\n  \
    \          (h_upd): Identity()\n            (x_upd): Identity()\n            (emb_layers):\
    \ Sequential(\n              (0): SiLU()\n              (1): Linear(in_features=1280,\
    \ out_features=1280, bias=True)\n            )\n            (out_layers): Sequential(\n\
    \              (0): GroupNormSpecific(32, 1280, eps=1e-05, affine=True)\n    \
    \          (1): SiLU()\n              (2): Dropout(p=0.0, inplace=False)\n   \
    \           (3): Conv2d(1280, 1280, kernel_size=(3, 3), stride=(1, 1), padding=(1,\
    \ 1))\n            )\n            (skip_connection): Conv2d(2560, 1280, kernel_size=(1,\
    \ 1), stride=(1, 1))\n            (temopral_conv): TemporalConvBlock(\n      \
    \        (conv1): Sequential(\n                (0): GroupNorm(32, 1280, eps=1e-05,\
    \ affine=True)\n                (1): SiLU()\n                (2): Conv3d(1280,\
    \ 1280, kernel_size=(3, 1, 1), stride=(1, 1, 1), padding=(1, 0, 0))\n        \
    \      )\n              (conv2): Sequential(\n                (0): GroupNorm(32,\
    \ 1280, eps=1e-05, affine=True)\n                (1): SiLU()\n               \
    \ (2): Dropout(p=0.1, inplace=False)\n                (3): Conv3d(1280, 1280,\
    \ kernel_size=(3, 1, 1), stride=(1, 1, 1), padding=(1, 0, 0))\n              )\n\
    \              (conv3): Sequential(\n                (0): GroupNorm(32, 1280,\
    \ eps=1e-05, affine=True)\n                (1): SiLU()\n                (2): Dropout(p=0.1,\
    \ inplace=False)\n                (3): Conv3d(1280, 1280, kernel_size=(3, 1, 1),\
    \ stride=(1, 1, 1), padding=(1, 0, 0))\n              )\n              (conv4):\
    \ Sequential(\n                (0): GroupNorm(32, 1280, eps=1e-05, affine=True)\n\
    \                (1): SiLU()\n                (2): Dropout(p=0.1, inplace=False)\n\
    \                (3): Conv3d(1280, 1280, kernel_size=(3, 1, 1), stride=(1, 1,\
    \ 1), padding=(1, 0, 0))\n              )\n            )\n          )\n      \
    \    (1): Upsample(\n            (conv): Conv2d(1280, 1280, kernel_size=(3, 3),\
    \ stride=(1, 1), padding=(1, 1))\n          )\n        )\n        (3-4): 2 x TimestepEmbedSequential(\n\
    \          (0): ResBlock(\n            (in_layers): Sequential(\n            \
    \  (0): GroupNormSpecific(32, 2560, eps=1e-05, affine=True)\n              (1):\
    \ SiLU()\n              (2): Conv2d(2560, 1280, kernel_size=(3, 3), stride=(1,\
    \ 1), padding=(1, 1))\n            )\n            (h_upd): Identity()\n      \
    \      (x_upd): Identity()\n            (emb_layers): Sequential(\n          \
    \    (0): SiLU()\n              (1): Linear(in_features=1280, out_features=1280,\
    \ bias=True)\n            )\n            (out_layers): Sequential(\n         \
    \     (0): GroupNormSpecific(32, 1280, eps=1e-05, affine=True)\n             \
    \ (1): SiLU()\n              (2): Dropout(p=0.0, inplace=False)\n            \
    \  (3): Conv2d(1280, 1280, kernel_size=(3, 3), stride=(1, 1), padding=(1, 1))\n\
    \            )\n            (skip_connection): Conv2d(2560, 1280, kernel_size=(1,\
    \ 1), stride=(1, 1))\n            (temopral_conv): TemporalConvBlock(\n      \
    \        (conv1): Sequential(\n                (0): GroupNorm(32, 1280, eps=1e-05,\
    \ affine=True)\n                (1): SiLU()\n                (2): Conv3d(1280,\
    \ 1280, kernel_size=(3, 1, 1), stride=(1, 1, 1), padding=(1, 0, 0))\n        \
    \      )\n              (conv2): Sequential(\n                (0): GroupNorm(32,\
    \ 1280, eps=1e-05, affine=True)\n                (1): SiLU()\n               \
    \ (2): Dropout(p=0.1, inplace=False)\n                (3): Conv3d(1280, 1280,\
    \ kernel_size=(3, 1, 1), stride=(1, 1, 1), padding=(1, 0, 0))\n              )\n\
    \              (conv3): Sequential(\n                (0): GroupNorm(32, 1280,\
    \ eps=1e-05, affine=True)\n                (1): SiLU()\n                (2): Dropout(p=0.1,\
    \ inplace=False)\n                (3): Conv3d(1280, 1280, kernel_size=(3, 1, 1),\
    \ stride=(1, 1, 1), padding=(1, 0, 0))\n              )\n              (conv4):\
    \ Sequential(\n                (0): GroupNorm(32, 1280, eps=1e-05, affine=True)\n\
    \                (1): SiLU()\n                (2): Dropout(p=0.1, inplace=False)\n\
    \                (3): Conv3d(1280, 1280, kernel_size=(3, 1, 1), stride=(1, 1,\
    \ 1), padding=(1, 0, 0))\n              )\n            )\n          )\n      \
    \    (1): SpatialTransformer(\n            (norm): GroupNorm(32, 1280, eps=1e-06,\
    \ affine=True)\n            (proj_in): Linear(in_features=1280, out_features=1280,\
    \ bias=True)\n            (transformer_blocks): ModuleList(\n              (0):\
    \ BasicTransformerBlock(\n                (attn1): CrossAttention(\n         \
    \         (to_q): Linear(in_features=1280, out_features=1280, bias=False)\n  \
    \                (to_k): Linear(in_features=1280, out_features=1280, bias=False)\n\
    \                  (to_v): Linear(in_features=1280, out_features=1280, bias=False)\n\
    \                  (to_out): Sequential(\n                    (0): Linear(in_features=1280,\
    \ out_features=1280, bias=True)\n                    (1): Dropout(p=0.0, inplace=False)\n\
    \                  )\n                )\n                (ff): FeedForward(\n\
    \                  (net): Sequential(\n                    (0): GEGLU(\n     \
    \                 (proj): Linear(in_features=1280, out_features=10240, bias=True)\n\
    \                    )\n                    (1): Dropout(p=0.0, inplace=False)\n\
    \                    (2): Linear(in_features=5120, out_features=1280, bias=True)\n\
    \                  )\n                )\n                (attn2): CrossAttention(\n\
    \                  (to_q): Linear(in_features=1280, out_features=1280, bias=False)\n\
    \                  (to_k): Linear(in_features=1024, out_features=1280, bias=False)\n\
    \                  (to_v): Linear(in_features=1024, out_features=1280, bias=False)\n\
    \                  (to_out): Sequential(\n                    (0): Linear(in_features=1280,\
    \ out_features=1280, bias=True)\n                    (1): Dropout(p=0.0, inplace=False)\n\
    \                  )\n                )\n                (norm1): LayerNorm((1280,),\
    \ eps=1e-05, elementwise_affine=True)\n                (norm2): LayerNorm((1280,),\
    \ eps=1e-05, elementwise_affine=True)\n                (norm3): LayerNorm((1280,),\
    \ eps=1e-05, elementwise_affine=True)\n              )\n            )\n      \
    \      (proj_out): Linear(in_features=1280, out_features=1280, bias=True)\n  \
    \        )\n          (2): TemporalTransformer(\n            (norm): GroupNorm(32,\
    \ 1280, eps=1e-06, affine=True)\n            (proj_in): Linear(in_features=1280,\
    \ out_features=1280, bias=True)\n            (transformer_blocks): ModuleList(\n\
    \              (0): BasicTransformerBlock(\n                (attn1): CrossAttention(\n\
    \                  (to_q): Linear(in_features=1280, out_features=1280, bias=False)\n\
    \                  (to_k): Linear(in_features=1280, out_features=1280, bias=False)\n\
    \                  (to_v): Linear(in_features=1280, out_features=1280, bias=False)\n\
    \                  (to_out): Sequential(\n                    (0): Linear(in_features=1280,\
    \ out_features=1280, bias=True)\n                    (1): Dropout(p=0.0, inplace=False)\n\
    \                  )\n                )\n                (ff): FeedForward(\n\
    \                  (net): Sequential(\n                    (0): GEGLU(\n     \
    \                 (proj): Linear(in_features=1280, out_features=10240, bias=True)\n\
    \                    )\n                    (1): Dropout(p=0.0, inplace=False)\n\
    \                    (2): Linear(in_features=5120, out_features=1280, bias=True)\n\
    \                  )\n                )\n                (attn2): CrossAttention(\n\
    \                  (to_q): Linear(in_features=1280, out_features=1280, bias=False)\n\
    \                  (to_k): Linear(in_features=1280, out_features=1280, bias=False)\n\
    \                  (to_v): Linear(in_features=1280, out_features=1280, bias=False)\n\
    \                  (to_out): Sequential(\n                    (0): Linear(in_features=1280,\
    \ out_features=1280, bias=True)\n                    (1): Dropout(p=0.0, inplace=False)\n\
    \                  )\n                )\n                (norm1): LayerNorm((1280,),\
    \ eps=1e-05, elementwise_affine=True)\n                (norm2): LayerNorm((1280,),\
    \ eps=1e-05, elementwise_affine=True)\n                (norm3): LayerNorm((1280,),\
    \ eps=1e-05, elementwise_affine=True)\n              )\n            )\n      \
    \      (proj_out): Linear(in_features=1280, out_features=1280, bias=True)\n  \
    \        )\n        )\n        (5): TimestepEmbedSequential(\n          (0): ResBlock(\n\
    \            (in_layers): Sequential(\n              (0): GroupNormSpecific(32,\
    \ 1920, eps=1e-05, affine=True)\n              (1): SiLU()\n              (2):\
    \ Conv2d(1920, 1280, kernel_size=(3, 3), stride=(1, 1), padding=(1, 1))\n    \
    \        )\n            (h_upd): Identity()\n            (x_upd): Identity()\n\
    \            (emb_layers): Sequential(\n              (0): SiLU()\n          \
    \    (1): Linear(in_features=1280, out_features=1280, bias=True)\n           \
    \ )\n            (out_layers): Sequential(\n              (0): GroupNormSpecific(32,\
    \ 1280, eps=1e-05, affine=True)\n              (1): SiLU()\n              (2):\
    \ Dropout(p=0.0, inplace=False)\n              (3): Conv2d(1280, 1280, kernel_size=(3,\
    \ 3), stride=(1, 1), padding=(1, 1))\n            )\n            (skip_connection):\
    \ Conv2d(1920, 1280, kernel_size=(1, 1), stride=(1, 1))\n            (temopral_conv):\
    \ TemporalConvBlock(\n              (conv1): Sequential(\n                (0):\
    \ GroupNorm(32, 1280, eps=1e-05, affine=True)\n                (1): SiLU()\n \
    \               (2): Conv3d(1280, 1280, kernel_size=(3, 1, 1), stride=(1, 1, 1),\
    \ padding=(1, 0, 0))\n              )\n              (conv2): Sequential(\n  \
    \              (0): GroupNorm(32, 1280, eps=1e-05, affine=True)\n            \
    \    (1): SiLU()\n                (2): Dropout(p=0.1, inplace=False)\n       \
    \         (3): Conv3d(1280, 1280, kernel_size=(3, 1, 1), stride=(1, 1, 1), padding=(1,\
    \ 0, 0))\n              )\n              (conv3): Sequential(\n              \
    \  (0): GroupNorm(32, 1280, eps=1e-05, affine=True)\n                (1): SiLU()\n\
    \                (2): Dropout(p=0.1, inplace=False)\n                (3): Conv3d(1280,\
    \ 1280, kernel_size=(3, 1, 1), stride=(1, 1, 1), padding=(1, 0, 0))\n        \
    \      )\n              (conv4): Sequential(\n                (0): GroupNorm(32,\
    \ 1280, eps=1e-05, affine=True)\n                (1): SiLU()\n               \
    \ (2): Dropout(p=0.1, inplace=False)\n                (3): Conv3d(1280, 1280,\
    \ kernel_size=(3, 1, 1), stride=(1, 1, 1), padding=(1, 0, 0))\n              )\n\
    \            )\n          )\n          (1): SpatialTransformer(\n            (norm):\
    \ GroupNorm(32, 1280, eps=1e-06, affine=True)\n            (proj_in): Linear(in_features=1280,\
    \ out_features=1280, bias=True)\n            (transformer_blocks): ModuleList(\n\
    \              (0): BasicTransformerBlock(\n                (attn1): CrossAttention(\n\
    \                  (to_q): Linear(in_features=1280, out_features=1280, bias=False)\n\
    \                  (to_k): Linear(in_features=1280, out_features=1280, bias=False)\n\
    \                  (to_v): Linear(in_features=1280, out_features=1280, bias=False)\n\
    \                  (to_out): Sequential(\n                    (0): Linear(in_features=1280,\
    \ out_features=1280, bias=True)\n                    (1): Dropout(p=0.0, inplace=False)\n\
    \                  )\n                )\n                (ff): FeedForward(\n\
    \                  (net): Sequential(\n                    (0): GEGLU(\n     \
    \                 (proj): Linear(in_features=1280, out_features=10240, bias=True)\n\
    \                    )\n                    (1): Dropout(p=0.0, inplace=False)\n\
    \                    (2): Linear(in_features=5120, out_features=1280, bias=True)\n\
    \                  )\n                )\n                (attn2): CrossAttention(\n\
    \                  (to_q): Linear(in_features=1280, out_features=1280, bias=False)\n\
    \                  (to_k): Linear(in_features=1024, out_features=1280, bias=False)\n\
    \                  (to_v): Linear(in_features=1024, out_features=1280, bias=False)\n\
    \                  (to_out): Sequential(\n                    (0): Linear(in_features=1280,\
    \ out_features=1280, bias=True)\n                    (1): Dropout(p=0.0, inplace=False)\n\
    \                  )\n                )\n                (norm1): LayerNorm((1280,),\
    \ eps=1e-05, elementwise_affine=True)\n                (norm2): LayerNorm((1280,),\
    \ eps=1e-05, elementwise_affine=True)\n                (norm3): LayerNorm((1280,),\
    \ eps=1e-05, elementwise_affine=True)\n              )\n            )\n      \
    \      (proj_out): Linear(in_features=1280, out_features=1280, bias=True)\n  \
    \        )\n          (2): TemporalTransformer(\n            (norm): GroupNorm(32,\
    \ 1280, eps=1e-06, affine=True)\n            (proj_in): Linear(in_features=1280,\
    \ out_features=1280, bias=True)\n            (transformer_blocks): ModuleList(\n\
    \              (0): BasicTransformerBlock(\n                (attn1): CrossAttention(\n\
    \                  (to_q): Linear(in_features=1280, out_features=1280, bias=False)\n\
    \                  (to_k): Linear(in_features=1280, out_features=1280, bias=False)\n\
    \                  (to_v): Linear(in_features=1280, out_features=1280, bias=False)\n\
    \                  (to_out): Sequential(\n                    (0): Linear(in_features=1280,\
    \ out_features=1280, bias=True)\n                    (1): Dropout(p=0.0, inplace=False)\n\
    \                  )\n                )\n                (ff): FeedForward(\n\
    \                  (net): Sequential(\n                    (0): GEGLU(\n     \
    \                 (proj): Linear(in_features=1280, out_features=10240, bias=True)\n\
    \                    )\n                    (1): Dropout(p=0.0, inplace=False)\n\
    \                    (2): Linear(in_features=5120, out_features=1280, bias=True)\n\
    \                  )\n                )\n                (attn2): CrossAttention(\n\
    \                  (to_q): Linear(in_features=1280, out_features=1280, bias=False)\n\
    \                  (to_k): Linear(in_features=1280, out_features=1280, bias=False)\n\
    \                  (to_v): Linear(in_features=1280, out_features=1280, bias=False)\n\
    \                  (to_out): Sequential(\n                    (0): Linear(in_features=1280,\
    \ out_features=1280, bias=True)\n                    (1): Dropout(p=0.0, inplace=False)\n\
    \                  )\n                )\n                (norm1): LayerNorm((1280,),\
    \ eps=1e-05, elementwise_affine=True)\n                (norm2): LayerNorm((1280,),\
    \ eps=1e-05, elementwise_affine=True)\n                (norm3): LayerNorm((1280,),\
    \ eps=1e-05, elementwise_affine=True)\n              )\n            )\n      \
    \      (proj_out): Linear(in_features=1280, out_features=1280, bias=True)\n  \
    \        )\n          (3): Upsample(\n            (conv): Conv2d(1280, 1280, kernel_size=(3,\
    \ 3), stride=(1, 1), padding=(1, 1))\n          )\n        )\n        (6): TimestepEmbedSequential(\n\
    \          (0): ResBlock(\n            (in_layers): Sequential(\n            \
    \  (0): GroupNormSpecific(32, 1920, eps=1e-05, affine=True)\n              (1):\
    \ SiLU()\n              (2): Conv2d(1920, 640, kernel_size=(3, 3), stride=(1,\
    \ 1), padding=(1, 1))\n            )\n            (h_upd): Identity()\n      \
    \      (x_upd): Identity()\n            (emb_layers): Sequential(\n          \
    \    (0): SiLU()\n              (1): Linear(in_features=1280, out_features=640,\
    \ bias=True)\n            )\n            (out_layers): Sequential(\n         \
    \     (0): GroupNormSpecific(32, 640, eps=1e-05, affine=True)\n              (1):\
    \ SiLU()\n              (2): Dropout(p=0.0, inplace=False)\n              (3):\
    \ Conv2d(640, 640, kernel_size=(3, 3), stride=(1, 1), padding=(1, 1))\n      \
    \      )\n            (skip_connection): Conv2d(1920, 640, kernel_size=(1, 1),\
    \ stride=(1, 1))\n            (temopral_conv): TemporalConvBlock(\n          \
    \    (conv1): Sequential(\n                (0): GroupNorm(32, 640, eps=1e-05,\
    \ affine=True)\n                (1): SiLU()\n                (2): Conv3d(640,\
    \ 640, kernel_size=(3, 1, 1), stride=(1, 1, 1), padding=(1, 0, 0))\n         \
    \     )\n              (conv2): Sequential(\n                (0): GroupNorm(32,\
    \ 640, eps=1e-05, affine=True)\n                (1): SiLU()\n                (2):\
    \ Dropout(p=0.1, inplace=False)\n                (3): Conv3d(640, 640, kernel_size=(3,\
    \ 1, 1), stride=(1, 1, 1), padding=(1, 0, 0))\n              )\n             \
    \ (conv3): Sequential(\n                (0): GroupNorm(32, 640, eps=1e-05, affine=True)\n\
    \                (1): SiLU()\n                (2): Dropout(p=0.1, inplace=False)\n\
    \                (3): Conv3d(640, 640, kernel_size=(3, 1, 1), stride=(1, 1, 1),\
    \ padding=(1, 0, 0))\n              )\n              (conv4): Sequential(\n  \
    \              (0): GroupNorm(32, 640, eps=1e-05, affine=True)\n             \
    \   (1): SiLU()\n                (2): Dropout(p=0.1, inplace=False)\n        \
    \        (3): Conv3d(640, 640, kernel_size=(3, 1, 1), stride=(1, 1, 1), padding=(1,\
    \ 0, 0))\n              )\n            )\n          )\n          (1): SpatialTransformer(\n\
    \            (norm): GroupNorm(32, 640, eps=1e-06, affine=True)\n            (proj_in):\
    \ Linear(in_features=640, out_features=640, bias=True)\n            (transformer_blocks):\
    \ ModuleList(\n              (0): BasicTransformerBlock(\n                (attn1):\
    \ CrossAttention(\n                  (to_q): Linear(in_features=640, out_features=640,\
    \ bias=False)\n                  (to_k): Linear(in_features=640, out_features=640,\
    \ bias=False)\n                  (to_v): Linear(in_features=640, out_features=640,\
    \ bias=False)\n                  (to_out): Sequential(\n                    (0):\
    \ Linear(in_features=640, out_features=640, bias=True)\n                    (1):\
    \ Dropout(p=0.0, inplace=False)\n                  )\n                )\n    \
    \            (ff): FeedForward(\n                  (net): Sequential(\n      \
    \              (0): GEGLU(\n                      (proj): Linear(in_features=640,\
    \ out_features=5120, bias=True)\n                    )\n                    (1):\
    \ Dropout(p=0.0, inplace=False)\n                    (2): Linear(in_features=2560,\
    \ out_features=640, bias=True)\n                  )\n                )\n     \
    \           (attn2): CrossAttention(\n                  (to_q): Linear(in_features=640,\
    \ out_features=640, bias=False)\n                  (to_k): Linear(in_features=1024,\
    \ out_features=640, bias=False)\n                  (to_v): Linear(in_features=1024,\
    \ out_features=640, bias=False)\n                  (to_out): Sequential(\n   \
    \                 (0): Linear(in_features=640, out_features=640, bias=True)\n\
    \                    (1): Dropout(p=0.0, inplace=False)\n                  )\n\
    \                )\n                (norm1): LayerNorm((640,), eps=1e-05, elementwise_affine=True)\n\
    \                (norm2): LayerNorm((640,), eps=1e-05, elementwise_affine=True)\n\
    \                (norm3): LayerNorm((640,), eps=1e-05, elementwise_affine=True)\n\
    \              )\n            )\n            (proj_out): Linear(in_features=640,\
    \ out_features=640, bias=True)\n          )\n          (2): TemporalTransformer(\n\
    \            (norm): GroupNorm(32, 640, eps=1e-06, affine=True)\n            (proj_in):\
    \ Linear(in_features=640, out_features=640, bias=True)\n            (transformer_blocks):\
    \ ModuleList(\n              (0): BasicTransformerBlock(\n                (attn1):\
    \ CrossAttention(\n                  (to_q): Linear(in_features=640, out_features=640,\
    \ bias=False)\n                  (to_k): Linear(in_features=640, out_features=640,\
    \ bias=False)\n                  (to_v): Linear(in_features=640, out_features=640,\
    \ bias=False)\n                  (to_out): Sequential(\n                    (0):\
    \ Linear(in_features=640, out_features=640, bias=True)\n                    (1):\
    \ Dropout(p=0.0, inplace=False)\n                  )\n                )\n    \
    \            (ff): FeedForward(\n                  (net): Sequential(\n      \
    \              (0): GEGLU(\n                      (proj): Linear(in_features=640,\
    \ out_features=5120, bias=True)\n                    )\n                    (1):\
    \ Dropout(p=0.0, inplace=False)\n                    (2): Linear(in_features=2560,\
    \ out_features=640, bias=True)\n                  )\n                )\n     \
    \           (attn2): CrossAttention(\n                  (to_q): Linear(in_features=640,\
    \ out_features=640, bias=False)\n                  (to_k): Linear(in_features=640,\
    \ out_features=640, bias=False)\n                  (to_v): Linear(in_features=640,\
    \ out_features=640, bias=False)\n                  (to_out): Sequential(\n   \
    \                 (0): Linear(in_features=640, out_features=640, bias=True)\n\
    \                    (1): Dropout(p=0.0, inplace=False)\n                  )\n\
    \                )\n                (norm1): LayerNorm((640,), eps=1e-05, elementwise_affine=True)\n\
    \                (norm2): LayerNorm((640,), eps=1e-05, elementwise_affine=True)\n\
    \                (norm3): LayerNorm((640,), eps=1e-05, elementwise_affine=True)\n\
    \              )\n            )\n            (proj_out): Linear(in_features=640,\
    \ out_features=640, bias=True)\n          )\n        )\n        (7): TimestepEmbedSequential(\n\
    \          (0): ResBlock(\n            (in_layers): Sequential(\n            \
    \  (0): GroupNormSpecific(32, 1280, eps=1e-05, affine=True)\n              (1):\
    \ SiLU()\n              (2): Conv2d(1280, 640, kernel_size=(3, 3), stride=(1,\
    \ 1), padding=(1, 1))\n            )\n            (h_upd): Identity()\n      \
    \      (x_upd): Identity()\n            (emb_layers): Sequential(\n          \
    \    (0): SiLU()\n              (1): Linear(in_features=1280, out_features=640,\
    \ bias=True)\n            )\n            (out_layers): Sequential(\n         \
    \     (0): GroupNormSpecific(32, 640, eps=1e-05, affine=True)\n              (1):\
    \ SiLU()\n              (2): Dropout(p=0.0, inplace=False)\n              (3):\
    \ Conv2d(640, 640, kernel_size=(3, 3), stride=(1, 1), padding=(1, 1))\n      \
    \      )\n            (skip_connection): Conv2d(1280, 640, kernel_size=(1, 1),\
    \ stride=(1, 1))\n            (temopral_conv): TemporalConvBlock(\n          \
    \    (conv1): Sequential(\n                (0): GroupNorm(32, 640, eps=1e-05,\
    \ affine=True)\n                (1): SiLU()\n                (2): Conv3d(640,\
    \ 640, kernel_size=(3, 1, 1), stride=(1, 1, 1), padding=(1, 0, 0))\n         \
    \     )\n              (conv2): Sequential(\n                (0): GroupNorm(32,\
    \ 640, eps=1e-05, affine=True)\n                (1): SiLU()\n                (2):\
    \ Dropout(p=0.1, inplace=False)\n                (3): Conv3d(640, 640, kernel_size=(3,\
    \ 1, 1), stride=(1, 1, 1), padding=(1, 0, 0))\n              )\n             \
    \ (conv3): Sequential(\n                (0): GroupNorm(32, 640, eps=1e-05, affine=True)\n\
    \                (1): SiLU()\n                (2): Dropout(p=0.1, inplace=False)\n\
    \                (3): Conv3d(640, 640, kernel_size=(3, 1, 1), stride=(1, 1, 1),\
    \ padding=(1, 0, 0))\n              )\n              (conv4): Sequential(\n  \
    \              (0): GroupNorm(32, 640, eps=1e-05, affine=True)\n             \
    \   (1): SiLU()\n                (2): Dropout(p=0.1, inplace=False)\n        \
    \        (3): Conv3d(640, 640, kernel_size=(3, 1, 1), stride=(1, 1, 1), padding=(1,\
    \ 0, 0))\n              )\n            )\n          )\n          (1): SpatialTransformer(\n\
    \            (norm): GroupNorm(32, 640, eps=1e-06, affine=True)\n            (proj_in):\
    \ Linear(in_features=640, out_features=640, bias=True)\n            (transformer_blocks):\
    \ ModuleList(\n              (0): BasicTransformerBlock(\n                (attn1):\
    \ CrossAttention(\n                  (to_q): Linear(in_features=640, out_features=640,\
    \ bias=False)\n                  (to_k): Linear(in_features=640, out_features=640,\
    \ bias=False)\n                  (to_v): Linear(in_features=640, out_features=640,\
    \ bias=False)\n                  (to_out): Sequential(\n                    (0):\
    \ Linear(in_features=640, out_features=640, bias=True)\n                    (1):\
    \ Dropout(p=0.0, inplace=False)\n                  )\n                )\n    \
    \            (ff): FeedForward(\n                  (net): Sequential(\n      \
    \              (0): GEGLU(\n                      (proj): Linear(in_features=640,\
    \ out_features=5120, bias=True)\n                    )\n                    (1):\
    \ Dropout(p=0.0, inplace=False)\n                    (2): Linear(in_features=2560,\
    \ out_features=640, bias=True)\n                  )\n                )\n     \
    \           (attn2): CrossAttention(\n                  (to_q): Linear(in_features=640,\
    \ out_features=640, bias=False)\n                  (to_k): Linear(in_features=1024,\
    \ out_features=640, bias=False)\n                  (to_v): Linear(in_features=1024,\
    \ out_features=640, bias=False)\n                  (to_out): Sequential(\n   \
    \                 (0): Linear(in_features=640, out_features=640, bias=True)\n\
    \                    (1): Dropout(p=0.0, inplace=False)\n                  )\n\
    \                )\n                (norm1): LayerNorm((640,), eps=1e-05, elementwise_affine=True)\n\
    \                (norm2): LayerNorm((640,), eps=1e-05, elementwise_affine=True)\n\
    \                (norm3): LayerNorm((640,), eps=1e-05, elementwise_affine=True)\n\
    \              )\n            )\n            (proj_out): Linear(in_features=640,\
    \ out_features=640, bias=True)\n          )\n          (2): TemporalTransformer(\n\
    \            (norm): GroupNorm(32, 640, eps=1e-06, affine=True)\n            (proj_in):\
    \ Linear(in_features=640, out_features=640, bias=True)\n            (transformer_blocks):\
    \ ModuleList(\n              (0): BasicTransformerBlock(\n                (attn1):\
    \ CrossAttention(\n                  (to_q): Linear(in_features=640, out_features=640,\
    \ bias=False)\n                  (to_k): Linear(in_features=640, out_features=640,\
    \ bias=False)\n                  (to_v): Linear(in_features=640, out_features=640,\
    \ bias=False)\n                  (to_out): Sequential(\n                    (0):\
    \ Linear(in_features=640, out_features=640, bias=True)\n                    (1):\
    \ Dropout(p=0.0, inplace=False)\n                  )\n                )\n    \
    \            (ff): FeedForward(\n                  (net): Sequential(\n      \
    \              (0): GEGLU(\n                      (proj): Linear(in_features=640,\
    \ out_features=5120, bias=True)\n                    )\n                    (1):\
    \ Dropout(p=0.0, inplace=False)\n                    (2): Linear(in_features=2560,\
    \ out_features=640, bias=True)\n                  )\n                )\n     \
    \           (attn2): CrossAttention(\n                  (to_q): Linear(in_features=640,\
    \ out_features=640, bias=False)\n                  (to_k): Linear(in_features=640,\
    \ out_features=640, bias=False)\n                  (to_v): Linear(in_features=640,\
    \ out_features=640, bias=False)\n                  (to_out): Sequential(\n   \
    \                 (0): Linear(in_features=640, out_features=640, bias=True)\n\
    \                    (1): Dropout(p=0.0, inplace=False)\n                  )\n\
    \                )\n                (norm1): LayerNorm((640,), eps=1e-05, elementwise_affine=True)\n\
    \                (norm2): LayerNorm((640,), eps=1e-05, elementwise_affine=True)\n\
    \                (norm3): LayerNorm((640,), eps=1e-05, elementwise_affine=True)\n\
    \              )\n            )\n            (proj_out): Linear(in_features=640,\
    \ out_features=640, bias=True)\n          )\n        )\n        (8): TimestepEmbedSequential(\n\
    \          (0): ResBlock(\n            (in_layers): Sequential(\n            \
    \  (0): GroupNormSpecific(32, 960, eps=1e-05, affine=True)\n              (1):\
    \ SiLU()\n              (2): Conv2d(960, 640, kernel_size=(3, 3), stride=(1, 1),\
    \ padding=(1, 1))\n            )\n            (h_upd): Identity()\n          \
    \  (x_upd): Identity()\n            (emb_layers): Sequential(\n              (0):\
    \ SiLU()\n              (1): Linear(in_features=1280, out_features=640, bias=True)\n\
    \            )\n            (out_layers): Sequential(\n              (0): GroupNormSpecific(32,\
    \ 640, eps=1e-05, affine=True)\n              (1): SiLU()\n              (2):\
    \ Dropout(p=0.0, inplace=False)\n              (3): Conv2d(640, 640, kernel_size=(3,\
    \ 3), stride=(1, 1), padding=(1, 1))\n            )\n            (skip_connection):\
    \ Conv2d(960, 640, kernel_size=(1, 1), stride=(1, 1))\n            (temopral_conv):\
    \ TemporalConvBlock(\n              (conv1): Sequential(\n                (0):\
    \ GroupNorm(32, 640, eps=1e-05, affine=True)\n                (1): SiLU()\n  \
    \              (2): Conv3d(640, 640, kernel_size=(3, 1, 1), stride=(1, 1, 1),\
    \ padding=(1, 0, 0))\n              )\n              (conv2): Sequential(\n  \
    \              (0): GroupNorm(32, 640, eps=1e-05, affine=True)\n             \
    \   (1): SiLU()\n                (2): Dropout(p=0.1, inplace=False)\n        \
    \        (3): Conv3d(640, 640, kernel_size=(3, 1, 1), stride=(1, 1, 1), padding=(1,\
    \ 0, 0))\n              )\n              (conv3): Sequential(\n              \
    \  (0): GroupNorm(32, 640, eps=1e-05, affine=True)\n                (1): SiLU()\n\
    \                (2): Dropout(p=0.1, inplace=False)\n                (3): Conv3d(640,\
    \ 640, kernel_size=(3, 1, 1), stride=(1, 1, 1), padding=(1, 0, 0))\n         \
    \     )\n              (conv4): Sequential(\n                (0): GroupNorm(32,\
    \ 640, eps=1e-05, affine=True)\n                (1): SiLU()\n                (2):\
    \ Dropout(p=0.1, inplace=False)\n                (3): Conv3d(640, 640, kernel_size=(3,\
    \ 1, 1), stride=(1, 1, 1), padding=(1, 0, 0))\n              )\n            )\n\
    \          )\n          (1): SpatialTransformer(\n            (norm): GroupNorm(32,\
    \ 640, eps=1e-06, affine=True)\n            (proj_in): Linear(in_features=640,\
    \ out_features=640, bias=True)\n            (transformer_blocks): ModuleList(\n\
    \              (0): BasicTransformerBlock(\n                (attn1): CrossAttention(\n\
    \                  (to_q): Linear(in_features=640, out_features=640, bias=False)\n\
    \                  (to_k): Linear(in_features=640, out_features=640, bias=False)\n\
    \                  (to_v): Linear(in_features=640, out_features=640, bias=False)\n\
    \                  (to_out): Sequential(\n                    (0): Linear(in_features=640,\
    \ out_features=640, bias=True)\n                    (1): Dropout(p=0.0, inplace=False)\n\
    \                  )\n                )\n                (ff): FeedForward(\n\
    \                  (net): Sequential(\n                    (0): GEGLU(\n     \
    \                 (proj): Linear(in_features=640, out_features=5120, bias=True)\n\
    \                    )\n                    (1): Dropout(p=0.0, inplace=False)\n\
    \                    (2): Linear(in_features=2560, out_features=640, bias=True)\n\
    \                  )\n                )\n                (attn2): CrossAttention(\n\
    \                  (to_q): Linear(in_features=640, out_features=640, bias=False)\n\
    \                  (to_k): Linear(in_features=1024, out_features=640, bias=False)\n\
    \                  (to_v): Linear(in_features=1024, out_features=640, bias=False)\n\
    \                  (to_out): Sequential(\n                    (0): Linear(in_features=640,\
    \ out_features=640, bias=True)\n                    (1): Dropout(p=0.0, inplace=False)\n\
    \                  )\n                )\n                (norm1): LayerNorm((640,),\
    \ eps=1e-05, elementwise_affine=True)\n                (norm2): LayerNorm((640,),\
    \ eps=1e-05, elementwise_affine=True)\n                (norm3): LayerNorm((640,),\
    \ eps=1e-05, elementwise_affine=True)\n              )\n            )\n      \
    \      (proj_out): Linear(in_features=640, out_features=640, bias=True)\n    \
    \      )\n          (2): TemporalTransformer(\n            (norm): GroupNorm(32,\
    \ 640, eps=1e-06, affine=True)\n            (proj_in): Linear(in_features=640,\
    \ out_features=640, bias=True)\n            (transformer_blocks): ModuleList(\n\
    \              (0): BasicTransformerBlock(\n                (attn1): CrossAttention(\n\
    \                  (to_q): Linear(in_features=640, out_features=640, bias=False)\n\
    \                  (to_k): Linear(in_features=640, out_features=640, bias=False)\n\
    \                  (to_v): Linear(in_features=640, out_features=640, bias=False)\n\
    \                  (to_out): Sequential(\n                    (0): Linear(in_features=640,\
    \ out_features=640, bias=True)\n                    (1): Dropout(p=0.0, inplace=False)\n\
    \                  )\n                )\n                (ff): FeedForward(\n\
    \                  (net): Sequential(\n                    (0): GEGLU(\n     \
    \                 (proj): Linear(in_features=640, out_features=5120, bias=True)\n\
    \                    )\n                    (1): Dropout(p=0.0, inplace=False)\n\
    \                    (2): Linear(in_features=2560, out_features=640, bias=True)\n\
    \                  )\n                )\n                (attn2): CrossAttention(\n\
    \                  (to_q): Linear(in_features=640, out_features=640, bias=False)\n\
    \                  (to_k): Linear(in_features=640, out_features=640, bias=False)\n\
    \                  (to_v): Linear(in_features=640, out_features=640, bias=False)\n\
    \                  (to_out): Sequential(\n                    (0): Linear(in_features=640,\
    \ out_features=640, bias=True)\n                    (1): Dropout(p=0.0, inplace=False)\n\
    \                  )\n                )\n                (norm1): LayerNorm((640,),\
    \ eps=1e-05, elementwise_affine=True)\n                (norm2): LayerNorm((640,),\
    \ eps=1e-05, elementwise_affine=True)\n                (norm3): LayerNorm((640,),\
    \ eps=1e-05, elementwise_affine=True)\n              )\n            )\n      \
    \      (proj_out): Linear(in_features=640, out_features=640, bias=True)\n    \
    \      )\n          (3): Upsample(\n            (conv): Conv2d(640, 640, kernel_size=(3,\
    \ 3), stride=(1, 1), padding=(1, 1))\n          )\n        )\n        (9): TimestepEmbedSequential(\n\
    \          (0): ResBlock(\n            (in_layers): Sequential(\n            \
    \  (0): GroupNormSpecific(32, 960, eps=1e-05, affine=True)\n              (1):\
    \ SiLU()\n              (2): Conv2d(960, 320, kernel_size=(3, 3), stride=(1, 1),\
    \ padding=(1, 1))\n            )\n            (h_upd): Identity()\n          \
    \  (x_upd): Identity()\n            (emb_layers): Sequential(\n              (0):\
    \ SiLU()\n              (1): Linear(in_features=1280, out_features=320, bias=True)\n\
    \            )\n            (out_layers): Sequential(\n              (0): GroupNormSpecific(32,\
    \ 320, eps=1e-05, affine=True)\n              (1): SiLU()\n              (2):\
    \ Dropout(p=0.0, inplace=False)\n              (3): Conv2d(320, 320, kernel_size=(3,\
    \ 3), stride=(1, 1), padding=(1, 1))\n            )\n            (skip_connection):\
    \ Conv2d(960, 320, kernel_size=(1, 1), stride=(1, 1))\n            (temopral_conv):\
    \ TemporalConvBlock(\n              (conv1): Sequential(\n                (0):\
    \ GroupNorm(32, 320, eps=1e-05, affine=True)\n                (1): SiLU()\n  \
    \              (2): Conv3d(320, 320, kernel_size=(3, 1, 1), stride=(1, 1, 1),\
    \ padding=(1, 0, 0))\n              )\n              (conv2): Sequential(\n  \
    \              (0): GroupNorm(32, 320, eps=1e-05, affine=True)\n             \
    \   (1): SiLU()\n                (2): Dropout(p=0.1, inplace=False)\n        \
    \        (3): Conv3d(320, 320, kernel_size=(3, 1, 1), stride=(1, 1, 1), padding=(1,\
    \ 0, 0))\n              )\n              (conv3): Sequential(\n              \
    \  (0): GroupNorm(32, 320, eps=1e-05, affine=True)\n                (1): SiLU()\n\
    \                (2): Dropout(p=0.1, inplace=False)\n                (3): Conv3d(320,\
    \ 320, kernel_size=(3, 1, 1), stride=(1, 1, 1), padding=(1, 0, 0))\n         \
    \     )\n              (conv4): Sequential(\n                (0): GroupNorm(32,\
    \ 320, eps=1e-05, affine=True)\n                (1): SiLU()\n                (2):\
    \ Dropout(p=0.1, inplace=False)\n                (3): Conv3d(320, 320, kernel_size=(3,\
    \ 1, 1), stride=(1, 1, 1), padding=(1, 0, 0))\n              )\n            )\n\
    \          )\n          (1): SpatialTransformer(\n            (norm): GroupNorm(32,\
    \ 320, eps=1e-06, affine=True)\n            (proj_in): Linear(in_features=320,\
    \ out_features=320, bias=True)\n            (transformer_blocks): ModuleList(\n\
    \              (0): BasicTransformerBlock(\n                (attn1): CrossAttention(\n\
    \                  (to_q): Linear(in_features=320, out_features=320, bias=False)\n\
    \                  (to_k): Linear(in_features=320, out_features=320, bias=False)\n\
    \                  (to_v): Linear(in_features=320, out_features=320, bias=False)\n\
    \                  (to_out): Sequential(\n                    (0): Linear(in_features=320,\
    \ out_features=320, bias=True)\n                    (1): Dropout(p=0.0, inplace=False)\n\
    \                  )\n                )\n                (ff): FeedForward(\n\
    \                  (net): Sequential(\n                    (0): GEGLU(\n     \
    \                 (proj): Linear(in_features=320, out_features=2560, bias=True)\n\
    \                    )\n                    (1): Dropout(p=0.0, inplace=False)\n\
    \                    (2): Linear(in_features=1280, out_features=320, bias=True)\n\
    \                  )\n                )\n                (attn2): CrossAttention(\n\
    \                  (to_q): Linear(in_features=320, out_features=320, bias=False)\n\
    \                  (to_k): Linear(in_features=1024, out_features=320, bias=False)\n\
    \                  (to_v): Linear(in_features=1024, out_features=320, bias=False)\n\
    \                  (to_out): Sequential(\n                    (0): Linear(in_features=320,\
    \ out_features=320, bias=True)\n                    (1): Dropout(p=0.0, inplace=False)\n\
    \                  )\n                )\n                (norm1): LayerNorm((320,),\
    \ eps=1e-05, elementwise_affine=True)\n                (norm2): LayerNorm((320,),\
    \ eps=1e-05, elementwise_affine=True)\n                (norm3): LayerNorm((320,),\
    \ eps=1e-05, elementwise_affine=True)\n              )\n            )\n      \
    \      (proj_out): Linear(in_features=320, out_features=320, bias=True)\n    \
    \      )\n          (2): TemporalTransformer(\n            (norm): GroupNorm(32,\
    \ 320, eps=1e-06, affine=True)\n            (proj_in): Linear(in_features=320,\
    \ out_features=320, bias=True)\n            (transformer_blocks): ModuleList(\n\
    \              (0): BasicTransformerBlock(\n                (attn1): CrossAttention(\n\
    \                  (to_q): Linear(in_features=320, out_features=320, bias=False)\n\
    \                  (to_k): Linear(in_features=320, out_features=320, bias=False)\n\
    \                  (to_v): Linear(in_features=320, out_features=320, bias=False)\n\
    \                  (to_out): Sequential(\n                    (0): Linear(in_features=320,\
    \ out_features=320, bias=True)\n                    (1): Dropout(p=0.0, inplace=False)\n\
    \                  )\n                )\n                (ff): FeedForward(\n\
    \                  (net): Sequential(\n                    (0): GEGLU(\n     \
    \                 (proj): Linear(in_features=320, out_features=2560, bias=True)\n\
    \                    )\n                    (1): Dropout(p=0.0, inplace=False)\n\
    \                    (2): Linear(in_features=1280, out_features=320, bias=True)\n\
    \                  )\n                )\n                (attn2): CrossAttention(\n\
    \                  (to_q): Linear(in_features=320, out_features=320, bias=False)\n\
    \                  (to_k): Linear(in_features=320, out_features=320, bias=False)\n\
    \                  (to_v): Linear(in_features=320, out_features=320, bias=False)\n\
    \                  (to_out): Sequential(\n                    (0): Linear(in_features=320,\
    \ out_features=320, bias=True)\n                    (1): Dropout(p=0.0, inplace=False)\n\
    \                  )\n                )\n                (norm1): LayerNorm((320,),\
    \ eps=1e-05, elementwise_affine=True)\n                (norm2): LayerNorm((320,),\
    \ eps=1e-05, elementwise_affine=True)\n                (norm3): LayerNorm((320,),\
    \ eps=1e-05, elementwise_affine=True)\n              )\n            )\n      \
    \      (proj_out): Linear(in_features=320, out_features=320, bias=True)\n    \
    \      )\n        )\n        (10-11): 2 x TimestepEmbedSequential(\n         \
    \ (0): ResBlock(\n            (in_layers): Sequential(\n              (0): GroupNormSpecific(32,\
    \ 640, eps=1e-05, affine=True)\n              (1): SiLU()\n              (2):\
    \ Conv2d(640, 320, kernel_size=(3, 3), stride=(1, 1), padding=(1, 1))\n      \
    \      )\n            (h_upd): Identity()\n            (x_upd): Identity()\n \
    \           (emb_layers): Sequential(\n              (0): SiLU()\n           \
    \   (1): Linear(in_features=1280, out_features=320, bias=True)\n            )\n\
    \            (out_layers): Sequential(\n              (0): GroupNormSpecific(32,\
    \ 320, eps=1e-05, affine=True)\n              (1): SiLU()\n              (2):\
    \ Dropout(p=0.0, inplace=False)\n              (3): Conv2d(320, 320, kernel_size=(3,\
    \ 3), stride=(1, 1), padding=(1, 1))\n            )\n            (skip_connection):\
    \ Conv2d(640, 320, kernel_size=(1, 1), stride=(1, 1))\n            (temopral_conv):\
    \ TemporalConvBlock(\n              (conv1): Sequential(\n                (0):\
    \ GroupNorm(32, 320, eps=1e-05, affine=True)\n                (1): SiLU()\n  \
    \              (2): Conv3d(320, 320, kernel_size=(3, 1, 1), stride=(1, 1, 1),\
    \ padding=(1, 0, 0))\n              )\n              (conv2): Sequential(\n  \
    \              (0): GroupNorm(32, 320, eps=1e-05, affine=True)\n             \
    \   (1): SiLU()\n                (2): Dropout(p=0.1, inplace=False)\n        \
    \        (3): Conv3d(320, 320, kernel_size=(3, 1, 1), stride=(1, 1, 1), padding=(1,\
    \ 0, 0))\n              )\n              (conv3): Sequential(\n              \
    \  (0): GroupNorm(32, 320, eps=1e-05, affine=True)\n                (1): SiLU()\n\
    \                (2): Dropout(p=0.1, inplace=False)\n                (3): Conv3d(320,\
    \ 320, kernel_size=(3, 1, 1), stride=(1, 1, 1), padding=(1, 0, 0))\n         \
    \     )\n              (conv4): Sequential(\n                (0): GroupNorm(32,\
    \ 320, eps=1e-05, affine=True)\n                (1): SiLU()\n                (2):\
    \ Dropout(p=0.1, inplace=False)\n                (3): Conv3d(320, 320, kernel_size=(3,\
    \ 1, 1), stride=(1, 1, 1), padding=(1, 0, 0))\n              )\n            )\n\
    \          )\n          (1): SpatialTransformer(\n            (norm): GroupNorm(32,\
    \ 320, eps=1e-06, affine=True)\n            (proj_in): Linear(in_features=320,\
    \ out_features=320, bias=True)\n            (transformer_blocks): ModuleList(\n\
    \              (0): BasicTransformerBlock(\n                (attn1): CrossAttention(\n\
    \                  (to_q): Linear(in_features=320, out_features=320, bias=False)\n\
    \                  (to_k): Linear(in_features=320, out_features=320, bias=False)\n\
    \                  (to_v): Linear(in_features=320, out_features=320, bias=False)\n\
    \                  (to_out): Sequential(\n                    (0): Linear(in_features=320,\
    \ out_features=320, bias=True)\n                    (1): Dropout(p=0.0, inplace=False)\n\
    \                  )\n                )\n                (ff): FeedForward(\n\
    \                  (net): Sequential(\n                    (0): GEGLU(\n     \
    \                 (proj): Linear(in_features=320, out_features=2560, bias=True)\n\
    \                    )\n                    (1): Dropout(p=0.0, inplace=False)\n\
    \                    (2): Linear(in_features=1280, out_features=320, bias=True)\n\
    \                  )\n                )\n                (attn2): CrossAttention(\n\
    \                  (to_q): Linear(in_features=320, out_features=320, bias=False)\n\
    \                  (to_k): Linear(in_features=1024, out_features=320, bias=False)\n\
    \                  (to_v): Linear(in_features=1024, out_features=320, bias=False)\n\
    \                  (to_out): Sequential(\n                    (0): Linear(in_features=320,\
    \ out_features=320, bias=True)\n                    (1): Dropout(p=0.0, inplace=False)\n\
    \                  )\n                )\n                (norm1): LayerNorm((320,),\
    \ eps=1e-05, elementwise_affine=True)\n                (norm2): LayerNorm((320,),\
    \ eps=1e-05, elementwise_affine=True)\n                (norm3): LayerNorm((320,),\
    \ eps=1e-05, elementwise_affine=True)\n              )\n            )\n      \
    \      (proj_out): Linear(in_features=320, out_features=320, bias=True)\n    \
    \      )\n          (2): TemporalTransformer(\n            (norm): GroupNorm(32,\
    \ 320, eps=1e-06, affine=True)\n            (proj_in): Linear(in_features=320,\
    \ out_features=320, bias=True)\n            (transformer_blocks): ModuleList(\n\
    \              (0): BasicTransformerBlock(\n                (attn1): CrossAttention(\n\
    \                  (to_q): Linear(in_features=320, out_features=320, bias=False)\n\
    \                  (to_k): Linear(in_features=320, out_features=320, bias=False)\n\
    \                  (to_v): Linear(in_features=320, out_features=320, bias=False)\n\
    \                  (to_out): Sequential(\n                    (0): Linear(in_features=320,\
    \ out_features=320, bias=True)\n                    (1): Dropout(p=0.0, inplace=False)\n\
    \                  )\n                )\n                (ff): FeedForward(\n\
    \                  (net): Sequential(\n                    (0): GEGLU(\n     \
    \                 (proj): Linear(in_features=320, out_features=2560, bias=True)\n\
    \                    )\n                    (1): Dropout(p=0.0, inplace=False)\n\
    \                    (2): Linear(in_features=1280, out_features=320, bias=True)\n\
    \                  )\n                )\n                (attn2): CrossAttention(\n\
    \                  (to_q): Linear(in_features=320, out_features=320, bias=False)\n\
    \                  (to_k): Linear(in_features=320, out_features=320, bias=False)\n\
    \                  (to_v): Linear(in_features=320, out_features=320, bias=False)\n\
    \                  (to_out): Sequential(\n                    (0): Linear(in_features=320,\
    \ out_features=320, bias=True)\n                    (1): Dropout(p=0.0, inplace=False)\n\
    \                  )\n                )\n                (norm1): LayerNorm((320,),\
    \ eps=1e-05, elementwise_affine=True)\n                (norm2): LayerNorm((320,),\
    \ eps=1e-05, elementwise_affine=True)\n                (norm3): LayerNorm((320,),\
    \ eps=1e-05, elementwise_affine=True)\n              )\n            )\n      \
    \      (proj_out): Linear(in_features=320, out_features=320, bias=True)\n    \
    \      )\n        )\n      )\n      (out): Sequential(\n        (0): GroupNormSpecific(32,\
    \ 320, eps=1e-05, affine=True)\n        (1): SiLU()\n        (2): Conv2d(320,\
    \ 4, kernel_size=(3, 3), stride=(1, 1), padding=(1, 1))\n      )\n    )\n  )\n\
    \  (first_stage_model): AutoencoderKL(\n    (encoder): Encoder(\n      (conv_in):\
    \ Conv2d(3, 128, kernel_size=(3, 3), stride=(1, 1), padding=(1, 1))\n      (down):\
    \ ModuleList(\n        (0): Module(\n          (block): ModuleList(\n        \
    \    (0-1): 2 x ResnetBlock(\n              (norm1): GroupNorm(32, 128, eps=1e-06,\
    \ affine=True)\n              (conv1): Conv2d(128, 128, kernel_size=(3, 3), stride=(1,\
    \ 1), padding=(1, 1))\n              (norm2): GroupNorm(32, 128, eps=1e-06, affine=True)\n\
    \              (dropout): Dropout(p=0.0, inplace=False)\n              (conv2):\
    \ Conv2d(128, 128, kernel_size=(3, 3), stride=(1, 1), padding=(1, 1))\n      \
    \      )\n          )\n          (attn): ModuleList()\n          (downsample):\
    \ Downsample(\n            (conv): Conv2d(128, 128, kernel_size=(3, 3), stride=(2,\
    \ 2))\n          )\n        )\n        (1): Module(\n          (block): ModuleList(\n\
    \            (0): ResnetBlock(\n              (norm1): GroupNorm(32, 128, eps=1e-06,\
    \ affine=True)\n              (conv1): Conv2d(128, 256, kernel_size=(3, 3), stride=(1,\
    \ 1), padding=(1, 1))\n              (norm2): GroupNorm(32, 256, eps=1e-06, affine=True)\n\
    \              (dropout): Dropout(p=0.0, inplace=False)\n              (conv2):\
    \ Conv2d(256, 256, kernel_size=(3, 3), stride=(1, 1), padding=(1, 1))\n      \
    \        (nin_shortcut): Conv2d(128, 256, kernel_size=(1, 1), stride=(1, 1))\n\
    \            )\n            (1): ResnetBlock(\n              (norm1): GroupNorm(32,\
    \ 256, eps=1e-06, affine=True)\n              (conv1): Conv2d(256, 256, kernel_size=(3,\
    \ 3), stride=(1, 1), padding=(1, 1))\n              (norm2): GroupNorm(32, 256,\
    \ eps=1e-06, affine=True)\n              (dropout): Dropout(p=0.0, inplace=False)\n\
    \              (conv2): Conv2d(256, 256, kernel_size=(3, 3), stride=(1, 1), padding=(1,\
    \ 1))\n            )\n          )\n          (attn): ModuleList()\n          (downsample):\
    \ Downsample(\n            (conv): Conv2d(256, 256, kernel_size=(3, 3), stride=(2,\
    \ 2))\n          )\n        )\n        (2): Module(\n          (block): ModuleList(\n\
    \            (0): ResnetBlock(\n              (norm1): GroupNorm(32, 256, eps=1e-06,\
    \ affine=True)\n              (conv1): Conv2d(256, 512, kernel_size=(3, 3), stride=(1,\
    \ 1), padding=(1, 1))\n              (norm2): GroupNorm(32, 512, eps=1e-06, affine=True)\n\
    \              (dropout): Dropout(p=0.0, inplace=False)\n              (conv2):\
    \ Conv2d(512, 512, kernel_size=(3, 3), stride=(1, 1), padding=(1, 1))\n      \
    \        (nin_shortcut): Conv2d(256, 512, kernel_size=(1, 1), stride=(1, 1))\n\
    \            )\n            (1): ResnetBlock(\n              (norm1): GroupNorm(32,\
    \ 512, eps=1e-06, affine=True)\n              (conv1): Conv2d(512, 512, kernel_size=(3,\
    \ 3), stride=(1, 1), padding=(1, 1))\n              (norm2): GroupNorm(32, 512,\
    \ eps=1e-06, affine=True)\n              (dropout): Dropout(p=0.0, inplace=False)\n\
    \              (conv2): Conv2d(512, 512, kernel_size=(3, 3), stride=(1, 1), padding=(1,\
    \ 1))\n            )\n          )\n          (attn): ModuleList()\n          (downsample):\
    \ Downsample(\n            (conv): Conv2d(512, 512, kernel_size=(3, 3), stride=(2,\
    \ 2))\n          )\n        )\n        (3): Module(\n          (block): ModuleList(\n\
    \            (0-1): 2 x ResnetBlock(\n              (norm1): GroupNorm(32, 512,\
    \ eps=1e-06, affine=True)\n              (conv1): Conv2d(512, 512, kernel_size=(3,\
    \ 3), stride=(1, 1), padding=(1, 1))\n              (norm2): GroupNorm(32, 512,\
    \ eps=1e-06, affine=True)\n              (dropout): Dropout(p=0.0, inplace=False)\n\
    \              (conv2): Conv2d(512, 512, kernel_size=(3, 3), stride=(1, 1), padding=(1,\
    \ 1))\n            )\n          )\n          (attn): ModuleList()\n        )\n\
    \      )\n      (mid): Module(\n        (block_1): ResnetBlock(\n          (norm1):\
    \ GroupNorm(32, 512, eps=1e-06, affine=True)\n          (conv1): Conv2d(512, 512,\
    \ kernel_size=(3, 3), stride=(1, 1), padding=(1, 1))\n          (norm2): GroupNorm(32,\
    \ 512, eps=1e-06, affine=True)\n          (dropout): Dropout(p=0.0, inplace=False)\n\
    \          (conv2): Conv2d(512, 512, kernel_size=(3, 3), stride=(1, 1), padding=(1,\
    \ 1))\n        )\n        (attn_1): AttnBlock(\n          (norm): GroupNorm(32,\
    \ 512, eps=1e-06, affine=True)\n          (q): Conv2d(512, 512, kernel_size=(1,\
    \ 1), stride=(1, 1))\n          (k): Conv2d(512, 512, kernel_size=(1, 1), stride=(1,\
    \ 1))\n          (v): Conv2d(512, 512, kernel_size=(1, 1), stride=(1, 1))\n  \
    \        (proj_out): Conv2d(512, 512, kernel_size=(1, 1), stride=(1, 1))\n   \
    \     )\n        (block_2): ResnetBlock(\n          (norm1): GroupNorm(32, 512,\
    \ eps=1e-06, affine=True)\n          (conv1): Conv2d(512, 512, kernel_size=(3,\
    \ 3), stride=(1, 1), padding=(1, 1))\n          (norm2): GroupNorm(32, 512, eps=1e-06,\
    \ affine=True)\n          (dropout): Dropout(p=0.0, inplace=False)\n         \
    \ (conv2): Conv2d(512, 512, kernel_size=(3, 3), stride=(1, 1), padding=(1, 1))\n\
    \        )\n      )\n      (norm_out): GroupNorm(32, 512, eps=1e-06, affine=True)\n\
    \      (conv_out): Conv2d(512, 8, kernel_size=(3, 3), stride=(1, 1), padding=(1,\
    \ 1))\n    )\n    (decoder): Decoder(\n      (conv_in): Conv2d(4, 512, kernel_size=(3,\
    \ 3), stride=(1, 1), padding=(1, 1))\n      (mid): Module(\n        (block_1):\
    \ ResnetBlock(\n          (norm1): GroupNorm(32, 512, eps=1e-06, affine=True)\n\
    \          (conv1): Conv2d(512, 512, kernel_size=(3, 3), stride=(1, 1), padding=(1,\
    \ 1))\n          (norm2): GroupNorm(32, 512, eps=1e-06, affine=True)\n       \
    \   (dropout): Dropout(p=0.0, inplace=False)\n          (conv2): Conv2d(512, 512,\
    \ kernel_size=(3, 3), stride=(1, 1), padding=(1, 1))\n        )\n        (attn_1):\
    \ AttnBlock(\n          (norm): GroupNorm(32, 512, eps=1e-06, affine=True)\n \
    \         (q): Conv2d(512, 512, kernel_size=(1, 1), stride=(1, 1))\n         \
    \ (k): Conv2d(512, 512, kernel_size=(1, 1), stride=(1, 1))\n          (v): Conv2d(512,\
    \ 512, kernel_size=(1, 1), stride=(1, 1))\n          (proj_out): Conv2d(512, 512,\
    \ kernel_size=(1, 1), stride=(1, 1))\n        )\n        (block_2): ResnetBlock(\n\
    \          (norm1): GroupNorm(32, 512, eps=1e-06, affine=True)\n          (conv1):\
    \ Conv2d(512, 512, kernel_size=(3, 3), stride=(1, 1), padding=(1, 1))\n      \
    \    (norm2): GroupNorm(32, 512, eps=1e-06, affine=True)\n          (dropout):\
    \ Dropout(p=0.0, inplace=False)\n          (conv2): Conv2d(512, 512, kernel_size=(3,\
    \ 3), stride=(1, 1), padding=(1, 1))\n        )\n      )\n      (up): ModuleList(\n\
    \        (0): Module(\n          (block): ModuleList(\n            (0): ResnetBlock(\n\
    \              (norm1): GroupNorm(32, 256, eps=1e-06, affine=True)\n         \
    \     (conv1): Conv2d(256, 128, kernel_size=(3, 3), stride=(1, 1), padding=(1,\
    \ 1))\n              (norm2): GroupNorm(32, 128, eps=1e-06, affine=True)\n   \
    \           (dropout): Dropout(p=0.0, inplace=False)\n              (conv2): Conv2d(128,\
    \ 128, kernel_size=(3, 3), stride=(1, 1), padding=(1, 1))\n              (nin_shortcut):\
    \ Conv2d(256, 128, kernel_size=(1, 1), stride=(1, 1))\n            )\n       \
    \     (1-2): 2 x ResnetBlock(\n              (norm1): GroupNorm(32, 128, eps=1e-06,\
    \ affine=True)\n              (conv1): Conv2d(128, 128, kernel_size=(3, 3), stride=(1,\
    \ 1), padding=(1, 1))\n              (norm2): GroupNorm(32, 128, eps=1e-06, affine=True)\n\
    \              (dropout): Dropout(p=0.0, inplace=False)\n              (conv2):\
    \ Conv2d(128, 128, kernel_size=(3, 3), stride=(1, 1), padding=(1, 1))\n      \
    \      )\n          )\n          (attn): ModuleList()\n        )\n        (1):\
    \ Module(\n          (block): ModuleList(\n            (0): ResnetBlock(\n   \
    \           (norm1): GroupNorm(32, 512, eps=1e-06, affine=True)\n            \
    \  (conv1): Conv2d(512, 256, kernel_size=(3, 3), stride=(1, 1), padding=(1, 1))\n\
    \              (norm2): GroupNorm(32, 256, eps=1e-06, affine=True)\n         \
    \     (dropout): Dropout(p=0.0, inplace=False)\n              (conv2): Conv2d(256,\
    \ 256, kernel_size=(3, 3), stride=(1, 1), padding=(1, 1))\n              (nin_shortcut):\
    \ Conv2d(512, 256, kernel_size=(1, 1), stride=(1, 1))\n            )\n       \
    \     (1-2): 2 x ResnetBlock(\n              (norm1): GroupNorm(32, 256, eps=1e-06,\
    \ affine=True)\n              (conv1): Conv2d(256, 256, kernel_size=(3, 3), stride=(1,\
    \ 1), padding=(1, 1))\n              (norm2): GroupNorm(32, 256, eps=1e-06, affine=True)\n\
    \              (dropout): Dropout(p=0.0, inplace=False)\n              (conv2):\
    \ Conv2d(256, 256, kernel_size=(3, 3), stride=(1, 1), padding=(1, 1))\n      \
    \      )\n          )\n          (attn): ModuleList()\n          (upsample): Upsample(\n\
    \            (conv): Conv2d(256, 256, kernel_size=(3, 3), stride=(1, 1), padding=(1,\
    \ 1))\n          )\n        )\n        (2-3): 2 x Module(\n          (block):\
    \ ModuleList(\n            (0-2): 3 x ResnetBlock(\n              (norm1): GroupNorm(32,\
    \ 512, eps=1e-06, affine=True)\n              (conv1): Conv2d(512, 512, kernel_size=(3,\
    \ 3), stride=(1, 1), padding=(1, 1))\n              (norm2): GroupNorm(32, 512,\
    \ eps=1e-06, affine=True)\n              (dropout): Dropout(p=0.0, inplace=False)\n\
    \              (conv2): Conv2d(512, 512, kernel_size=(3, 3), stride=(1, 1), padding=(1,\
    \ 1))\n            )\n          )\n          (attn): ModuleList()\n          (upsample):\
    \ Upsample(\n            (conv): Conv2d(512, 512, kernel_size=(3, 3), stride=(1,\
    \ 1), padding=(1, 1))\n          )\n        )\n      )\n      (norm_out): GroupNorm(32,\
    \ 128, eps=1e-06, affine=True)\n      (conv_out): Conv2d(128, 3, kernel_size=(3,\
    \ 3), stride=(1, 1), padding=(1, 1))\n    )\n    (loss): Identity()\n    (quant_conv):\
    \ Conv2d(8, 8, kernel_size=(1, 1), stride=(1, 1))\n    (post_quant_conv): Conv2d(4,\
    \ 4, kernel_size=(1, 1), stride=(1, 1))\n  )\n  (cond_stage_model): FrozenOpenCLIPEmbedder(\n\
    \    (model): CLIP(\n      (transformer): Transformer(\n        (resblocks): ModuleList(\n\
    \          (0-23): 24 x ResidualAttentionBlock(\n            (ln_1): LayerNorm((1024,),\
    \ eps=1e-05, elementwise_affine=True)\n            (attn): MultiheadAttention(\n\
    \              (out_proj): NonDynamicallyQuantizableLinear(in_features=1024, out_features=1024,\
    \ bias=True)\n            )\n            (ls_1): Identity()\n            (ln_2):\
    \ LayerNorm((1024,), eps=1e-05, elementwise_affine=True)\n            (mlp): Sequential(\n\
    \              (c_fc): Linear(in_features=1024, out_features=4096, bias=True)\n\
    \              (gelu): GELU(approximate='none')\n              (c_proj): Linear(in_features=4096,\
    \ out_features=1024, bias=True)\n            )\n            (ls_2): Identity()\n\
    \          )\n        )\n      )\n      (token_embedding): Embedding(49408, 1024)\n\
    \      (ln_final): LayerNorm((1024,), eps=1e-05, elementwise_affine=True)\n  \
    \  )\n  )\n)"
teacher_model:
  desc: null
  value: "LatentDiffusion(\n  (model): DiffusionWrapper(\n    (diffusion_model): UNetModel(\n\
    \      (time_embed): Sequential(\n        (0): Linear(in_features=320, out_features=1280,\
    \ bias=True)\n        (1): SiLU()\n        (2): Linear(in_features=1280, out_features=1280,\
    \ bias=True)\n      )\n      (fps_embedding): Sequential(\n        (0): Linear(in_features=320,\
    \ out_features=1280, bias=True)\n        (1): SiLU()\n        (2): Linear(in_features=1280,\
    \ out_features=1280, bias=True)\n      )\n      (input_blocks): ModuleList(\n\
    \        (0): TimestepEmbedSequential(\n          (0): Conv2d(4, 320, kernel_size=(3,\
    \ 3), stride=(1, 1), padding=(1, 1))\n        )\n        (1-2): 2 x TimestepEmbedSequential(\n\
    \          (0): ResBlock(\n            (in_layers): Sequential(\n            \
    \  (0): GroupNormSpecific(32, 320, eps=1e-05, affine=True)\n              (1):\
    \ SiLU()\n              (2): Conv2d(320, 320, kernel_size=(3, 3), stride=(1, 1),\
    \ padding=(1, 1))\n            )\n            (h_upd): Identity()\n          \
    \  (x_upd): Identity()\n            (emb_layers): Sequential(\n              (0):\
    \ SiLU()\n              (1): Linear(in_features=1280, out_features=320, bias=True)\n\
    \            )\n            (out_layers): Sequential(\n              (0): GroupNormSpecific(32,\
    \ 320, eps=1e-05, affine=True)\n              (1): SiLU()\n              (2):\
    \ Dropout(p=0.0, inplace=False)\n              (3): Conv2d(320, 320, kernel_size=(3,\
    \ 3), stride=(1, 1), padding=(1, 1))\n            )\n            (skip_connection):\
    \ Identity()\n            (temopral_conv): TemporalConvBlock(\n              (conv1):\
    \ Sequential(\n                (0): GroupNorm(32, 320, eps=1e-05, affine=True)\n\
    \                (1): SiLU()\n                (2): Conv3d(320, 320, kernel_size=(3,\
    \ 1, 1), stride=(1, 1, 1), padding=(1, 0, 0))\n              )\n             \
    \ (conv2): Sequential(\n                (0): GroupNorm(32, 320, eps=1e-05, affine=True)\n\
    \                (1): SiLU()\n                (2): Dropout(p=0.1, inplace=False)\n\
    \                (3): Conv3d(320, 320, kernel_size=(3, 1, 1), stride=(1, 1, 1),\
    \ padding=(1, 0, 0))\n              )\n              (conv3): Sequential(\n  \
    \              (0): GroupNorm(32, 320, eps=1e-05, affine=True)\n             \
    \   (1): SiLU()\n                (2): Dropout(p=0.1, inplace=False)\n        \
    \        (3): Conv3d(320, 320, kernel_size=(3, 1, 1), stride=(1, 1, 1), padding=(1,\
    \ 0, 0))\n              )\n              (conv4): Sequential(\n              \
    \  (0): GroupNorm(32, 320, eps=1e-05, affine=True)\n                (1): SiLU()\n\
    \                (2): Dropout(p=0.1, inplace=False)\n                (3): Conv3d(320,\
    \ 320, kernel_size=(3, 1, 1), stride=(1, 1, 1), padding=(1, 0, 0))\n         \
    \     )\n            )\n          )\n          (1): SpatialTransformer(\n    \
    \        (norm): GroupNorm(32, 320, eps=1e-06, affine=True)\n            (proj_in):\
    \ Linear(in_features=320, out_features=320, bias=True)\n            (transformer_blocks):\
    \ ModuleList(\n              (0): BasicTransformerBlock(\n                (attn1):\
    \ CrossAttention(\n                  (to_q): Linear(in_features=320, out_features=320,\
    \ bias=False)\n                  (to_k): Linear(in_features=320, out_features=320,\
    \ bias=False)\n                  (to_v): Linear(in_features=320, out_features=320,\
    \ bias=False)\n                  (to_out): Sequential(\n                    (0):\
    \ Linear(in_features=320, out_features=320, bias=True)\n                    (1):\
    \ Dropout(p=0.0, inplace=False)\n                  )\n                )\n    \
    \            (ff): FeedForward(\n                  (net): Sequential(\n      \
    \              (0): GEGLU(\n                      (proj): Linear(in_features=320,\
    \ out_features=2560, bias=True)\n                    )\n                    (1):\
    \ Dropout(p=0.0, inplace=False)\n                    (2): Linear(in_features=1280,\
    \ out_features=320, bias=True)\n                  )\n                )\n     \
    \           (attn2): CrossAttention(\n                  (to_q): Linear(in_features=320,\
    \ out_features=320, bias=False)\n                  (to_k): Linear(in_features=1024,\
    \ out_features=320, bias=False)\n                  (to_v): Linear(in_features=1024,\
    \ out_features=320, bias=False)\n                  (to_out): Sequential(\n   \
    \                 (0): Linear(in_features=320, out_features=320, bias=True)\n\
    \                    (1): Dropout(p=0.0, inplace=False)\n                  )\n\
    \                )\n                (norm1): LayerNorm((320,), eps=1e-05, elementwise_affine=True)\n\
    \                (norm2): LayerNorm((320,), eps=1e-05, elementwise_affine=True)\n\
    \                (norm3): LayerNorm((320,), eps=1e-05, elementwise_affine=True)\n\
    \              )\n            )\n            (proj_out): Linear(in_features=320,\
    \ out_features=320, bias=True)\n          )\n          (2): TemporalTransformer(\n\
    \            (norm): GroupNorm(32, 320, eps=1e-06, affine=True)\n            (proj_in):\
    \ Linear(in_features=320, out_features=320, bias=True)\n            (transformer_blocks):\
    \ ModuleList(\n              (0): BasicTransformerBlock(\n                (attn1):\
    \ CrossAttention(\n                  (to_q): Linear(in_features=320, out_features=320,\
    \ bias=False)\n                  (to_k): Linear(in_features=320, out_features=320,\
    \ bias=False)\n                  (to_v): Linear(in_features=320, out_features=320,\
    \ bias=False)\n                  (to_out): Sequential(\n                    (0):\
    \ Linear(in_features=320, out_features=320, bias=True)\n                    (1):\
    \ Dropout(p=0.0, inplace=False)\n                  )\n                )\n    \
    \            (ff): FeedForward(\n                  (net): Sequential(\n      \
    \              (0): GEGLU(\n                      (proj): Linear(in_features=320,\
    \ out_features=2560, bias=True)\n                    )\n                    (1):\
    \ Dropout(p=0.0, inplace=False)\n                    (2): Linear(in_features=1280,\
    \ out_features=320, bias=True)\n                  )\n                )\n     \
    \           (attn2): CrossAttention(\n                  (to_q): Linear(in_features=320,\
    \ out_features=320, bias=False)\n                  (to_k): Linear(in_features=320,\
    \ out_features=320, bias=False)\n                  (to_v): Linear(in_features=320,\
    \ out_features=320, bias=False)\n                  (to_out): Sequential(\n   \
    \                 (0): Linear(in_features=320, out_features=320, bias=True)\n\
    \                    (1): Dropout(p=0.0, inplace=False)\n                  )\n\
    \                )\n                (norm1): LayerNorm((320,), eps=1e-05, elementwise_affine=True)\n\
    \                (norm2): LayerNorm((320,), eps=1e-05, elementwise_affine=True)\n\
    \                (norm3): LayerNorm((320,), eps=1e-05, elementwise_affine=True)\n\
    \              )\n            )\n            (proj_out): Linear(in_features=320,\
    \ out_features=320, bias=True)\n          )\n        )\n        (3): TimestepEmbedSequential(\n\
    \          (0): Downsample(\n            (op): Conv2d(320, 320, kernel_size=(3,\
    \ 3), stride=(2, 2), padding=(1, 1))\n          )\n        )\n        (4): TimestepEmbedSequential(\n\
    \          (0): ResBlock(\n            (in_layers): Sequential(\n            \
    \  (0): GroupNormSpecific(32, 320, eps=1e-05, affine=True)\n              (1):\
    \ SiLU()\n              (2): Conv2d(320, 640, kernel_size=(3, 3), stride=(1, 1),\
    \ padding=(1, 1))\n            )\n            (h_upd): Identity()\n          \
    \  (x_upd): Identity()\n            (emb_layers): Sequential(\n              (0):\
    \ SiLU()\n              (1): Linear(in_features=1280, out_features=640, bias=True)\n\
    \            )\n            (out_layers): Sequential(\n              (0): GroupNormSpecific(32,\
    \ 640, eps=1e-05, affine=True)\n              (1): SiLU()\n              (2):\
    \ Dropout(p=0.0, inplace=False)\n              (3): Conv2d(640, 640, kernel_size=(3,\
    \ 3), stride=(1, 1), padding=(1, 1))\n            )\n            (skip_connection):\
    \ Conv2d(320, 640, kernel_size=(1, 1), stride=(1, 1))\n            (temopral_conv):\
    \ TemporalConvBlock(\n              (conv1): Sequential(\n                (0):\
    \ GroupNorm(32, 640, eps=1e-05, affine=True)\n                (1): SiLU()\n  \
    \              (2): Conv3d(640, 640, kernel_size=(3, 1, 1), stride=(1, 1, 1),\
    \ padding=(1, 0, 0))\n              )\n              (conv2): Sequential(\n  \
    \              (0): GroupNorm(32, 640, eps=1e-05, affine=True)\n             \
    \   (1): SiLU()\n                (2): Dropout(p=0.1, inplace=False)\n        \
    \        (3): Conv3d(640, 640, kernel_size=(3, 1, 1), stride=(1, 1, 1), padding=(1,\
    \ 0, 0))\n              )\n              (conv3): Sequential(\n              \
    \  (0): GroupNorm(32, 640, eps=1e-05, affine=True)\n                (1): SiLU()\n\
    \                (2): Dropout(p=0.1, inplace=False)\n                (3): Conv3d(640,\
    \ 640, kernel_size=(3, 1, 1), stride=(1, 1, 1), padding=(1, 0, 0))\n         \
    \     )\n              (conv4): Sequential(\n                (0): GroupNorm(32,\
    \ 640, eps=1e-05, affine=True)\n                (1): SiLU()\n                (2):\
    \ Dropout(p=0.1, inplace=False)\n                (3): Conv3d(640, 640, kernel_size=(3,\
    \ 1, 1), stride=(1, 1, 1), padding=(1, 0, 0))\n              )\n            )\n\
    \          )\n          (1): SpatialTransformer(\n            (norm): GroupNorm(32,\
    \ 640, eps=1e-06, affine=True)\n            (proj_in): Linear(in_features=640,\
    \ out_features=640, bias=True)\n            (transformer_blocks): ModuleList(\n\
    \              (0): BasicTransformerBlock(\n                (attn1): CrossAttention(\n\
    \                  (to_q): Linear(in_features=640, out_features=640, bias=False)\n\
    \                  (to_k): Linear(in_features=640, out_features=640, bias=False)\n\
    \                  (to_v): Linear(in_features=640, out_features=640, bias=False)\n\
    \                  (to_out): Sequential(\n                    (0): Linear(in_features=640,\
    \ out_features=640, bias=True)\n                    (1): Dropout(p=0.0, inplace=False)\n\
    \                  )\n                )\n                (ff): FeedForward(\n\
    \                  (net): Sequential(\n                    (0): GEGLU(\n     \
    \                 (proj): Linear(in_features=640, out_features=5120, bias=True)\n\
    \                    )\n                    (1): Dropout(p=0.0, inplace=False)\n\
    \                    (2): Linear(in_features=2560, out_features=640, bias=True)\n\
    \                  )\n                )\n                (attn2): CrossAttention(\n\
    \                  (to_q): Linear(in_features=640, out_features=640, bias=False)\n\
    \                  (to_k): Linear(in_features=1024, out_features=640, bias=False)\n\
    \                  (to_v): Linear(in_features=1024, out_features=640, bias=False)\n\
    \                  (to_out): Sequential(\n                    (0): Linear(in_features=640,\
    \ out_features=640, bias=True)\n                    (1): Dropout(p=0.0, inplace=False)\n\
    \                  )\n                )\n                (norm1): LayerNorm((640,),\
    \ eps=1e-05, elementwise_affine=True)\n                (norm2): LayerNorm((640,),\
    \ eps=1e-05, elementwise_affine=True)\n                (norm3): LayerNorm((640,),\
    \ eps=1e-05, elementwise_affine=True)\n              )\n            )\n      \
    \      (proj_out): Linear(in_features=640, out_features=640, bias=True)\n    \
    \      )\n          (2): TemporalTransformer(\n            (norm): GroupNorm(32,\
    \ 640, eps=1e-06, affine=True)\n            (proj_in): Linear(in_features=640,\
    \ out_features=640, bias=True)\n            (transformer_blocks): ModuleList(\n\
    \              (0): BasicTransformerBlock(\n                (attn1): CrossAttention(\n\
    \                  (to_q): Linear(in_features=640, out_features=640, bias=False)\n\
    \                  (to_k): Linear(in_features=640, out_features=640, bias=False)\n\
    \                  (to_v): Linear(in_features=640, out_features=640, bias=False)\n\
    \                  (to_out): Sequential(\n                    (0): Linear(in_features=640,\
    \ out_features=640, bias=True)\n                    (1): Dropout(p=0.0, inplace=False)\n\
    \                  )\n                )\n                (ff): FeedForward(\n\
    \                  (net): Sequential(\n                    (0): GEGLU(\n     \
    \                 (proj): Linear(in_features=640, out_features=5120, bias=True)\n\
    \                    )\n                    (1): Dropout(p=0.0, inplace=False)\n\
    \                    (2): Linear(in_features=2560, out_features=640, bias=True)\n\
    \                  )\n                )\n                (attn2): CrossAttention(\n\
    \                  (to_q): Linear(in_features=640, out_features=640, bias=False)\n\
    \                  (to_k): Linear(in_features=640, out_features=640, bias=False)\n\
    \                  (to_v): Linear(in_features=640, out_features=640, bias=False)\n\
    \                  (to_out): Sequential(\n                    (0): Linear(in_features=640,\
    \ out_features=640, bias=True)\n                    (1): Dropout(p=0.0, inplace=False)\n\
    \                  )\n                )\n                (norm1): LayerNorm((640,),\
    \ eps=1e-05, elementwise_affine=True)\n                (norm2): LayerNorm((640,),\
    \ eps=1e-05, elementwise_affine=True)\n                (norm3): LayerNorm((640,),\
    \ eps=1e-05, elementwise_affine=True)\n              )\n            )\n      \
    \      (proj_out): Linear(in_features=640, out_features=640, bias=True)\n    \
    \      )\n        )\n        (5): TimestepEmbedSequential(\n          (0): ResBlock(\n\
    \            (in_layers): Sequential(\n              (0): GroupNormSpecific(32,\
    \ 640, eps=1e-05, affine=True)\n              (1): SiLU()\n              (2):\
    \ Conv2d(640, 640, kernel_size=(3, 3), stride=(1, 1), padding=(1, 1))\n      \
    \      )\n            (h_upd): Identity()\n            (x_upd): Identity()\n \
    \           (emb_layers): Sequential(\n              (0): SiLU()\n           \
    \   (1): Linear(in_features=1280, out_features=640, bias=True)\n            )\n\
    \            (out_layers): Sequential(\n              (0): GroupNormSpecific(32,\
    \ 640, eps=1e-05, affine=True)\n              (1): SiLU()\n              (2):\
    \ Dropout(p=0.0, inplace=False)\n              (3): Conv2d(640, 640, kernel_size=(3,\
    \ 3), stride=(1, 1), padding=(1, 1))\n            )\n            (skip_connection):\
    \ Identity()\n            (temopral_conv): TemporalConvBlock(\n              (conv1):\
    \ Sequential(\n                (0): GroupNorm(32, 640, eps=1e-05, affine=True)\n\
    \                (1): SiLU()\n                (2): Conv3d(640, 640, kernel_size=(3,\
    \ 1, 1), stride=(1, 1, 1), padding=(1, 0, 0))\n              )\n             \
    \ (conv2): Sequential(\n                (0): GroupNorm(32, 640, eps=1e-05, affine=True)\n\
    \                (1): SiLU()\n                (2): Dropout(p=0.1, inplace=False)\n\
    \                (3): Conv3d(640, 640, kernel_size=(3, 1, 1), stride=(1, 1, 1),\
    \ padding=(1, 0, 0))\n              )\n              (conv3): Sequential(\n  \
    \              (0): GroupNorm(32, 640, eps=1e-05, affine=True)\n             \
    \   (1): SiLU()\n                (2): Dropout(p=0.1, inplace=False)\n        \
    \        (3): Conv3d(640, 640, kernel_size=(3, 1, 1), stride=(1, 1, 1), padding=(1,\
    \ 0, 0))\n              )\n              (conv4): Sequential(\n              \
    \  (0): GroupNorm(32, 640, eps=1e-05, affine=True)\n                (1): SiLU()\n\
    \                (2): Dropout(p=0.1, inplace=False)\n                (3): Conv3d(640,\
    \ 640, kernel_size=(3, 1, 1), stride=(1, 1, 1), padding=(1, 0, 0))\n         \
    \     )\n            )\n          )\n          (1): SpatialTransformer(\n    \
    \        (norm): GroupNorm(32, 640, eps=1e-06, affine=True)\n            (proj_in):\
    \ Linear(in_features=640, out_features=640, bias=True)\n            (transformer_blocks):\
    \ ModuleList(\n              (0): BasicTransformerBlock(\n                (attn1):\
    \ CrossAttention(\n                  (to_q): Linear(in_features=640, out_features=640,\
    \ bias=False)\n                  (to_k): Linear(in_features=640, out_features=640,\
    \ bias=False)\n                  (to_v): Linear(in_features=640, out_features=640,\
    \ bias=False)\n                  (to_out): Sequential(\n                    (0):\
    \ Linear(in_features=640, out_features=640, bias=True)\n                    (1):\
    \ Dropout(p=0.0, inplace=False)\n                  )\n                )\n    \
    \            (ff): FeedForward(\n                  (net): Sequential(\n      \
    \              (0): GEGLU(\n                      (proj): Linear(in_features=640,\
    \ out_features=5120, bias=True)\n                    )\n                    (1):\
    \ Dropout(p=0.0, inplace=False)\n                    (2): Linear(in_features=2560,\
    \ out_features=640, bias=True)\n                  )\n                )\n     \
    \           (attn2): CrossAttention(\n                  (to_q): Linear(in_features=640,\
    \ out_features=640, bias=False)\n                  (to_k): Linear(in_features=1024,\
    \ out_features=640, bias=False)\n                  (to_v): Linear(in_features=1024,\
    \ out_features=640, bias=False)\n                  (to_out): Sequential(\n   \
    \                 (0): Linear(in_features=640, out_features=640, bias=True)\n\
    \                    (1): Dropout(p=0.0, inplace=False)\n                  )\n\
    \                )\n                (norm1): LayerNorm((640,), eps=1e-05, elementwise_affine=True)\n\
    \                (norm2): LayerNorm((640,), eps=1e-05, elementwise_affine=True)\n\
    \                (norm3): LayerNorm((640,), eps=1e-05, elementwise_affine=True)\n\
    \              )\n            )\n            (proj_out): Linear(in_features=640,\
    \ out_features=640, bias=True)\n          )\n          (2): TemporalTransformer(\n\
    \            (norm): GroupNorm(32, 640, eps=1e-06, affine=True)\n            (proj_in):\
    \ Linear(in_features=640, out_features=640, bias=True)\n            (transformer_blocks):\
    \ ModuleList(\n              (0): BasicTransformerBlock(\n                (attn1):\
    \ CrossAttention(\n                  (to_q): Linear(in_features=640, out_features=640,\
    \ bias=False)\n                  (to_k): Linear(in_features=640, out_features=640,\
    \ bias=False)\n                  (to_v): Linear(in_features=640, out_features=640,\
    \ bias=False)\n                  (to_out): Sequential(\n                    (0):\
    \ Linear(in_features=640, out_features=640, bias=True)\n                    (1):\
    \ Dropout(p=0.0, inplace=False)\n                  )\n                )\n    \
    \            (ff): FeedForward(\n                  (net): Sequential(\n      \
    \              (0): GEGLU(\n                      (proj): Linear(in_features=640,\
    \ out_features=5120, bias=True)\n                    )\n                    (1):\
    \ Dropout(p=0.0, inplace=False)\n                    (2): Linear(in_features=2560,\
    \ out_features=640, bias=True)\n                  )\n                )\n     \
    \           (attn2): CrossAttention(\n                  (to_q): Linear(in_features=640,\
    \ out_features=640, bias=False)\n                  (to_k): Linear(in_features=640,\
    \ out_features=640, bias=False)\n                  (to_v): Linear(in_features=640,\
    \ out_features=640, bias=False)\n                  (to_out): Sequential(\n   \
    \                 (0): Linear(in_features=640, out_features=640, bias=True)\n\
    \                    (1): Dropout(p=0.0, inplace=False)\n                  )\n\
    \                )\n                (norm1): LayerNorm((640,), eps=1e-05, elementwise_affine=True)\n\
    \                (norm2): LayerNorm((640,), eps=1e-05, elementwise_affine=True)\n\
    \                (norm3): LayerNorm((640,), eps=1e-05, elementwise_affine=True)\n\
    \              )\n            )\n            (proj_out): Linear(in_features=640,\
    \ out_features=640, bias=True)\n          )\n        )\n        (6): TimestepEmbedSequential(\n\
    \          (0): Downsample(\n            (op): Conv2d(640, 640, kernel_size=(3,\
    \ 3), stride=(2, 2), padding=(1, 1))\n          )\n        )\n        (7): TimestepEmbedSequential(\n\
    \          (0): ResBlock(\n            (in_layers): Sequential(\n            \
    \  (0): GroupNormSpecific(32, 640, eps=1e-05, affine=True)\n              (1):\
    \ SiLU()\n              (2): Conv2d(640, 1280, kernel_size=(3, 3), stride=(1,\
    \ 1), padding=(1, 1))\n            )\n            (h_upd): Identity()\n      \
    \      (x_upd): Identity()\n            (emb_layers): Sequential(\n          \
    \    (0): SiLU()\n              (1): Linear(in_features=1280, out_features=1280,\
    \ bias=True)\n            )\n            (out_layers): Sequential(\n         \
    \     (0): GroupNormSpecific(32, 1280, eps=1e-05, affine=True)\n             \
    \ (1): SiLU()\n              (2): Dropout(p=0.0, inplace=False)\n            \
    \  (3): Conv2d(1280, 1280, kernel_size=(3, 3), stride=(1, 1), padding=(1, 1))\n\
    \            )\n            (skip_connection): Conv2d(640, 1280, kernel_size=(1,\
    \ 1), stride=(1, 1))\n            (temopral_conv): TemporalConvBlock(\n      \
    \        (conv1): Sequential(\n                (0): GroupNorm(32, 1280, eps=1e-05,\
    \ affine=True)\n                (1): SiLU()\n                (2): Conv3d(1280,\
    \ 1280, kernel_size=(3, 1, 1), stride=(1, 1, 1), padding=(1, 0, 0))\n        \
    \      )\n              (conv2): Sequential(\n                (0): GroupNorm(32,\
    \ 1280, eps=1e-05, affine=True)\n                (1): SiLU()\n               \
    \ (2): Dropout(p=0.1, inplace=False)\n                (3): Conv3d(1280, 1280,\
    \ kernel_size=(3, 1, 1), stride=(1, 1, 1), padding=(1, 0, 0))\n              )\n\
    \              (conv3): Sequential(\n                (0): GroupNorm(32, 1280,\
    \ eps=1e-05, affine=True)\n                (1): SiLU()\n                (2): Dropout(p=0.1,\
    \ inplace=False)\n                (3): Conv3d(1280, 1280, kernel_size=(3, 1, 1),\
    \ stride=(1, 1, 1), padding=(1, 0, 0))\n              )\n              (conv4):\
    \ Sequential(\n                (0): GroupNorm(32, 1280, eps=1e-05, affine=True)\n\
    \                (1): SiLU()\n                (2): Dropout(p=0.1, inplace=False)\n\
    \                (3): Conv3d(1280, 1280, kernel_size=(3, 1, 1), stride=(1, 1,\
    \ 1), padding=(1, 0, 0))\n              )\n            )\n          )\n      \
    \    (1): SpatialTransformer(\n            (norm): GroupNorm(32, 1280, eps=1e-06,\
    \ affine=True)\n            (proj_in): Linear(in_features=1280, out_features=1280,\
    \ bias=True)\n            (transformer_blocks): ModuleList(\n              (0):\
    \ BasicTransformerBlock(\n                (attn1): CrossAttention(\n         \
    \         (to_q): Linear(in_features=1280, out_features=1280, bias=False)\n  \
    \                (to_k): Linear(in_features=1280, out_features=1280, bias=False)\n\
    \                  (to_v): Linear(in_features=1280, out_features=1280, bias=False)\n\
    \                  (to_out): Sequential(\n                    (0): Linear(in_features=1280,\
    \ out_features=1280, bias=True)\n                    (1): Dropout(p=0.0, inplace=False)\n\
    \                  )\n                )\n                (ff): FeedForward(\n\
    \                  (net): Sequential(\n                    (0): GEGLU(\n     \
    \                 (proj): Linear(in_features=1280, out_features=10240, bias=True)\n\
    \                    )\n                    (1): Dropout(p=0.0, inplace=False)\n\
    \                    (2): Linear(in_features=5120, out_features=1280, bias=True)\n\
    \                  )\n                )\n                (attn2): CrossAttention(\n\
    \                  (to_q): Linear(in_features=1280, out_features=1280, bias=False)\n\
    \                  (to_k): Linear(in_features=1024, out_features=1280, bias=False)\n\
    \                  (to_v): Linear(in_features=1024, out_features=1280, bias=False)\n\
    \                  (to_out): Sequential(\n                    (0): Linear(in_features=1280,\
    \ out_features=1280, bias=True)\n                    (1): Dropout(p=0.0, inplace=False)\n\
    \                  )\n                )\n                (norm1): LayerNorm((1280,),\
    \ eps=1e-05, elementwise_affine=True)\n                (norm2): LayerNorm((1280,),\
    \ eps=1e-05, elementwise_affine=True)\n                (norm3): LayerNorm((1280,),\
    \ eps=1e-05, elementwise_affine=True)\n              )\n            )\n      \
    \      (proj_out): Linear(in_features=1280, out_features=1280, bias=True)\n  \
    \        )\n          (2): TemporalTransformer(\n            (norm): GroupNorm(32,\
    \ 1280, eps=1e-06, affine=True)\n            (proj_in): Linear(in_features=1280,\
    \ out_features=1280, bias=True)\n            (transformer_blocks): ModuleList(\n\
    \              (0): BasicTransformerBlock(\n                (attn1): CrossAttention(\n\
    \                  (to_q): Linear(in_features=1280, out_features=1280, bias=False)\n\
    \                  (to_k): Linear(in_features=1280, out_features=1280, bias=False)\n\
    \                  (to_v): Linear(in_features=1280, out_features=1280, bias=False)\n\
    \                  (to_out): Sequential(\n                    (0): Linear(in_features=1280,\
    \ out_features=1280, bias=True)\n                    (1): Dropout(p=0.0, inplace=False)\n\
    \                  )\n                )\n                (ff): FeedForward(\n\
    \                  (net): Sequential(\n                    (0): GEGLU(\n     \
    \                 (proj): Linear(in_features=1280, out_features=10240, bias=True)\n\
    \                    )\n                    (1): Dropout(p=0.0, inplace=False)\n\
    \                    (2): Linear(in_features=5120, out_features=1280, bias=True)\n\
    \                  )\n                )\n                (attn2): CrossAttention(\n\
    \                  (to_q): Linear(in_features=1280, out_features=1280, bias=False)\n\
    \                  (to_k): Linear(in_features=1280, out_features=1280, bias=False)\n\
    \                  (to_v): Linear(in_features=1280, out_features=1280, bias=False)\n\
    \                  (to_out): Sequential(\n                    (0): Linear(in_features=1280,\
    \ out_features=1280, bias=True)\n                    (1): Dropout(p=0.0, inplace=False)\n\
    \                  )\n                )\n                (norm1): LayerNorm((1280,),\
    \ eps=1e-05, elementwise_affine=True)\n                (norm2): LayerNorm((1280,),\
    \ eps=1e-05, elementwise_affine=True)\n                (norm3): LayerNorm((1280,),\
    \ eps=1e-05, elementwise_affine=True)\n              )\n            )\n      \
    \      (proj_out): Linear(in_features=1280, out_features=1280, bias=True)\n  \
    \        )\n        )\n        (8): TimestepEmbedSequential(\n          (0): ResBlock(\n\
    \            (in_layers): Sequential(\n              (0): GroupNormSpecific(32,\
    \ 1280, eps=1e-05, affine=True)\n              (1): SiLU()\n              (2):\
    \ Conv2d(1280, 1280, kernel_size=(3, 3), stride=(1, 1), padding=(1, 1))\n    \
    \        )\n            (h_upd): Identity()\n            (x_upd): Identity()\n\
    \            (emb_layers): Sequential(\n              (0): SiLU()\n          \
    \    (1): Linear(in_features=1280, out_features=1280, bias=True)\n           \
    \ )\n            (out_layers): Sequential(\n              (0): GroupNormSpecific(32,\
    \ 1280, eps=1e-05, affine=True)\n              (1): SiLU()\n              (2):\
    \ Dropout(p=0.0, inplace=False)\n              (3): Conv2d(1280, 1280, kernel_size=(3,\
    \ 3), stride=(1, 1), padding=(1, 1))\n            )\n            (skip_connection):\
    \ Identity()\n            (temopral_conv): TemporalConvBlock(\n              (conv1):\
    \ Sequential(\n                (0): GroupNorm(32, 1280, eps=1e-05, affine=True)\n\
    \                (1): SiLU()\n                (2): Conv3d(1280, 1280, kernel_size=(3,\
    \ 1, 1), stride=(1, 1, 1), padding=(1, 0, 0))\n              )\n             \
    \ (conv2): Sequential(\n                (0): GroupNorm(32, 1280, eps=1e-05, affine=True)\n\
    \                (1): SiLU()\n                (2): Dropout(p=0.1, inplace=False)\n\
    \                (3): Conv3d(1280, 1280, kernel_size=(3, 1, 1), stride=(1, 1,\
    \ 1), padding=(1, 0, 0))\n              )\n              (conv3): Sequential(\n\
    \                (0): GroupNorm(32, 1280, eps=1e-05, affine=True)\n          \
    \      (1): SiLU()\n                (2): Dropout(p=0.1, inplace=False)\n     \
    \           (3): Conv3d(1280, 1280, kernel_size=(3, 1, 1), stride=(1, 1, 1), padding=(1,\
    \ 0, 0))\n              )\n              (conv4): Sequential(\n              \
    \  (0): GroupNorm(32, 1280, eps=1e-05, affine=True)\n                (1): SiLU()\n\
    \                (2): Dropout(p=0.1, inplace=False)\n                (3): Conv3d(1280,\
    \ 1280, kernel_size=(3, 1, 1), stride=(1, 1, 1), padding=(1, 0, 0))\n        \
    \      )\n            )\n          )\n          (1): SpatialTransformer(\n   \
    \         (norm): GroupNorm(32, 1280, eps=1e-06, affine=True)\n            (proj_in):\
    \ Linear(in_features=1280, out_features=1280, bias=True)\n            (transformer_blocks):\
    \ ModuleList(\n              (0): BasicTransformerBlock(\n                (attn1):\
    \ CrossAttention(\n                  (to_q): Linear(in_features=1280, out_features=1280,\
    \ bias=False)\n                  (to_k): Linear(in_features=1280, out_features=1280,\
    \ bias=False)\n                  (to_v): Linear(in_features=1280, out_features=1280,\
    \ bias=False)\n                  (to_out): Sequential(\n                    (0):\
    \ Linear(in_features=1280, out_features=1280, bias=True)\n                   \
    \ (1): Dropout(p=0.0, inplace=False)\n                  )\n                )\n\
    \                (ff): FeedForward(\n                  (net): Sequential(\n  \
    \                  (0): GEGLU(\n                      (proj): Linear(in_features=1280,\
    \ out_features=10240, bias=True)\n                    )\n                    (1):\
    \ Dropout(p=0.0, inplace=False)\n                    (2): Linear(in_features=5120,\
    \ out_features=1280, bias=True)\n                  )\n                )\n    \
    \            (attn2): CrossAttention(\n                  (to_q): Linear(in_features=1280,\
    \ out_features=1280, bias=False)\n                  (to_k): Linear(in_features=1024,\
    \ out_features=1280, bias=False)\n                  (to_v): Linear(in_features=1024,\
    \ out_features=1280, bias=False)\n                  (to_out): Sequential(\n  \
    \                  (0): Linear(in_features=1280, out_features=1280, bias=True)\n\
    \                    (1): Dropout(p=0.0, inplace=False)\n                  )\n\
    \                )\n                (norm1): LayerNorm((1280,), eps=1e-05, elementwise_affine=True)\n\
    \                (norm2): LayerNorm((1280,), eps=1e-05, elementwise_affine=True)\n\
    \                (norm3): LayerNorm((1280,), eps=1e-05, elementwise_affine=True)\n\
    \              )\n            )\n            (proj_out): Linear(in_features=1280,\
    \ out_features=1280, bias=True)\n          )\n          (2): TemporalTransformer(\n\
    \            (norm): GroupNorm(32, 1280, eps=1e-06, affine=True)\n           \
    \ (proj_in): Linear(in_features=1280, out_features=1280, bias=True)\n        \
    \    (transformer_blocks): ModuleList(\n              (0): BasicTransformerBlock(\n\
    \                (attn1): CrossAttention(\n                  (to_q): Linear(in_features=1280,\
    \ out_features=1280, bias=False)\n                  (to_k): Linear(in_features=1280,\
    \ out_features=1280, bias=False)\n                  (to_v): Linear(in_features=1280,\
    \ out_features=1280, bias=False)\n                  (to_out): Sequential(\n  \
    \                  (0): Linear(in_features=1280, out_features=1280, bias=True)\n\
    \                    (1): Dropout(p=0.0, inplace=False)\n                  )\n\
    \                )\n                (ff): FeedForward(\n                  (net):\
    \ Sequential(\n                    (0): GEGLU(\n                      (proj):\
    \ Linear(in_features=1280, out_features=10240, bias=True)\n                  \
    \  )\n                    (1): Dropout(p=0.0, inplace=False)\n               \
    \     (2): Linear(in_features=5120, out_features=1280, bias=True)\n          \
    \        )\n                )\n                (attn2): CrossAttention(\n    \
    \              (to_q): Linear(in_features=1280, out_features=1280, bias=False)\n\
    \                  (to_k): Linear(in_features=1280, out_features=1280, bias=False)\n\
    \                  (to_v): Linear(in_features=1280, out_features=1280, bias=False)\n\
    \                  (to_out): Sequential(\n                    (0): Linear(in_features=1280,\
    \ out_features=1280, bias=True)\n                    (1): Dropout(p=0.0, inplace=False)\n\
    \                  )\n                )\n                (norm1): LayerNorm((1280,),\
    \ eps=1e-05, elementwise_affine=True)\n                (norm2): LayerNorm((1280,),\
    \ eps=1e-05, elementwise_affine=True)\n                (norm3): LayerNorm((1280,),\
    \ eps=1e-05, elementwise_affine=True)\n              )\n            )\n      \
    \      (proj_out): Linear(in_features=1280, out_features=1280, bias=True)\n  \
    \        )\n        )\n        (9): TimestepEmbedSequential(\n          (0): Downsample(\n\
    \            (op): Conv2d(1280, 1280, kernel_size=(3, 3), stride=(2, 2), padding=(1,\
    \ 1))\n          )\n        )\n        (10-11): 2 x TimestepEmbedSequential(\n\
    \          (0): ResBlock(\n            (in_layers): Sequential(\n            \
    \  (0): GroupNormSpecific(32, 1280, eps=1e-05, affine=True)\n              (1):\
    \ SiLU()\n              (2): Conv2d(1280, 1280, kernel_size=(3, 3), stride=(1,\
    \ 1), padding=(1, 1))\n            )\n            (h_upd): Identity()\n      \
    \      (x_upd): Identity()\n            (emb_layers): Sequential(\n          \
    \    (0): SiLU()\n              (1): Linear(in_features=1280, out_features=1280,\
    \ bias=True)\n            )\n            (out_layers): Sequential(\n         \
    \     (0): GroupNormSpecific(32, 1280, eps=1e-05, affine=True)\n             \
    \ (1): SiLU()\n              (2): Dropout(p=0.0, inplace=False)\n            \
    \  (3): Conv2d(1280, 1280, kernel_size=(3, 3), stride=(1, 1), padding=(1, 1))\n\
    \            )\n            (skip_connection): Identity()\n            (temopral_conv):\
    \ TemporalConvBlock(\n              (conv1): Sequential(\n                (0):\
    \ GroupNorm(32, 1280, eps=1e-05, affine=True)\n                (1): SiLU()\n \
    \               (2): Conv3d(1280, 1280, kernel_size=(3, 1, 1), stride=(1, 1, 1),\
    \ padding=(1, 0, 0))\n              )\n              (conv2): Sequential(\n  \
    \              (0): GroupNorm(32, 1280, eps=1e-05, affine=True)\n            \
    \    (1): SiLU()\n                (2): Dropout(p=0.1, inplace=False)\n       \
    \         (3): Conv3d(1280, 1280, kernel_size=(3, 1, 1), stride=(1, 1, 1), padding=(1,\
    \ 0, 0))\n              )\n              (conv3): Sequential(\n              \
    \  (0): GroupNorm(32, 1280, eps=1e-05, affine=True)\n                (1): SiLU()\n\
    \                (2): Dropout(p=0.1, inplace=False)\n                (3): Conv3d(1280,\
    \ 1280, kernel_size=(3, 1, 1), stride=(1, 1, 1), padding=(1, 0, 0))\n        \
    \      )\n              (conv4): Sequential(\n                (0): GroupNorm(32,\
    \ 1280, eps=1e-05, affine=True)\n                (1): SiLU()\n               \
    \ (2): Dropout(p=0.1, inplace=False)\n                (3): Conv3d(1280, 1280,\
    \ kernel_size=(3, 1, 1), stride=(1, 1, 1), padding=(1, 0, 0))\n              )\n\
    \            )\n          )\n        )\n      )\n      (init_attn): TimestepEmbedSequential(\n\
    \        (0): TemporalTransformer(\n          (norm): GroupNorm(32, 320, eps=1e-06,\
…
    \                  (to_k): Linear(in_features=1280, out_features=1280, bias=False)\n\
    \                  (to_v): Linear(in_features=1280, out_features=1280, bias=False)\n\
    \                  (to_out): Sequential(\n                    (0): Linear(in_features=1280,\
    \ out_features=1280, bias=True)\n                    (1): Dropout(p=0.0, inplace=False)\n\
    \                  )\n                )\n                (ff): FeedForward(\n\
    \                  (net): Sequential(\n                    (0): GEGLU(\n     \
    \                 (proj): Linear(in_features=1280, out_features=10240, bias=True)\n\
    \                    )\n                    (1): Dropout(p=0.0, inplace=False)\n\
    \                    (2): Linear(in_features=5120, out_features=1280, bias=True)\n\
    \                  )\n                )\n                (attn2): CrossAttention(\n\
    \                  (to_q): Linear(in_features=1280, out_features=1280, bias=False)\n\
    \                  (to_k): Linear(in_features=1024, out_features=1280, bias=False)\n\
    \                  (to_v): Linear(in_features=1024, out_features=1280, bias=False)\n\
    \                  (to_out): Sequential(\n                    (0): Linear(in_features=1280,\
    \ out_features=1280, bias=True)\n                    (1): Dropout(p=0.0, inplace=False)\n\
    \                  )\n                )\n                (norm1): LayerNorm((1280,),\
    \ eps=1e-05, elementwise_affine=True)\n                (norm2): LayerNorm((1280,),\
    \ eps=1e-05, elementwise_affine=True)\n                (norm3): LayerNorm((1280,),\
    \ eps=1e-05, elementwise_affine=True)\n              )\n            )\n      \
    \      (proj_out): Linear(in_features=1280, out_features=1280, bias=True)\n  \
    \        )\n          (2): TemporalTransformer(\n            (norm): GroupNorm(32,\
    \ 1280, eps=1e-06, affine=True)\n            (proj_in): Linear(in_features=1280,\
    \ out_features=1280, bias=True)\n            (transformer_blocks): ModuleList(\n\
    \              (0): BasicTransformerBlock(\n                (attn1): CrossAttention(\n\
    \                  (to_q): Linear(in_features=1280, out_features=1280, bias=False)\n\
    \                  (to_k): Linear(in_features=1280, out_features=1280, bias=False)\n\
    \                  (to_v): Linear(in_features=1280, out_features=1280, bias=False)\n\
    \                  (to_out): Sequential(\n                    (0): Linear(in_features=1280,\
    \ out_features=1280, bias=True)\n                    (1): Dropout(p=0.0, inplace=False)\n\
    \                  )\n                )\n                (ff): FeedForward(\n\
    \                  (net): Sequential(\n                    (0): GEGLU(\n     \
    \                 (proj): Linear(in_features=1280, out_features=10240, bias=True)\n\
    \                    )\n                    (1): Dropout(p=0.0, inplace=False)\n\
    \                    (2): Linear(in_features=5120, out_features=1280, bias=True)\n\
    \                  )\n                )\n                (attn2): CrossAttention(\n\
    \                  (to_q): Linear(in_features=1280, out_features=1280, bias=False)\n\
    \                  (to_k): Linear(in_features=1280, out_features=1280, bias=False)\n\
    \                  (to_v): Linear(in_features=1280, out_features=1280, bias=False)\n\
    \                  (to_out): Sequential(\n                    (0): Linear(in_features=1280,\
    \ out_features=1280, bias=True)\n                    (1): Dropout(p=0.0, inplace=False)\n\
    \                  )\n                )\n                (norm1): LayerNorm((1280,),\
    \ eps=1e-05, elementwise_affine=True)\n                (norm2): LayerNorm((1280,),\
    \ eps=1e-05, elementwise_affine=True)\n                (norm3): LayerNorm((1280,),\
    \ eps=1e-05, elementwise_affine=True)\n              )\n            )\n      \
    \      (proj_out): Linear(in_features=1280, out_features=1280, bias=True)\n  \
    \        )\n          (3): Upsample(\n            (conv): Conv2d(1280, 1280, kernel_size=(3,\
    \ 3), stride=(1, 1), padding=(1, 1))\n          )\n        )\n        (6): TimestepEmbedSequential(\n\
    \          (0): ResBlock(\n            (in_layers): Sequential(\n            \
    \  (0): GroupNormSpecific(32, 1920, eps=1e-05, affine=True)\n              (1):\
    \ SiLU()\n              (2): Conv2d(1920, 640, kernel_size=(3, 3), stride=(1,\
    \ 1), padding=(1, 1))\n            )\n            (h_upd): Identity()\n      \
    \      (x_upd): Identity()\n            (emb_layers): Sequential(\n          \
    \    (0): SiLU()\n              (1): Linear(in_features=1280, out_features=640,\
    \ bias=True)\n            )\n            (out_layers): Sequential(\n         \
    \     (0): GroupNormSpecific(32, 640, eps=1e-05, affine=True)\n              (1):\
    \ SiLU()\n              (2): Dropout(p=0.0, inplace=False)\n              (3):\
    \ Conv2d(640, 640, kernel_size=(3, 3), stride=(1, 1), padding=(1, 1))\n      \
    \      )\n            (skip_connection): Conv2d(1920, 640, kernel_size=(1, 1),\
    \ stride=(1, 1))\n            (temopral_conv): TemporalConvBlock(\n          \
    \    (conv1): Sequential(\n                (0): GroupNorm(32, 640, eps=1e-05,\
    \ affine=True)\n                (1): SiLU()\n                (2): Conv3d(640,\
    \ 640, kernel_size=(3, 1, 1), stride=(1, 1, 1), padding=(1, 0, 0))\n         \
    \     )\n              (conv2): Sequential(\n                (0): GroupNorm(32,\
    \ 640, eps=1e-05, affine=True)\n                (1): SiLU()\n                (2):\
    \ Dropout(p=0.1, inplace=False)\n                (3): Conv3d(640, 640, kernel_size=(3,\
    \ 1, 1), stride=(1, 1, 1), padding=(1, 0, 0))\n              )\n             \
    \ (conv3): Sequential(\n                (0): GroupNorm(32, 640, eps=1e-05, affine=True)\n\
    \                (1): SiLU()\n                (2): Dropout(p=0.1, inplace=False)\n\
    \                (3): Conv3d(640, 640, kernel_size=(3, 1, 1), stride=(1, 1, 1),\
    \ padding=(1, 0, 0))\n              )\n              (conv4): Sequential(\n  \
    \              (0): GroupNorm(32, 640, eps=1e-05, affine=True)\n             \
    \   (1): SiLU()\n                (2): Dropout(p=0.1, inplace=False)\n        \
    \        (3): Conv3d(640, 640, kernel_size=(3, 1, 1), stride=(1, 1, 1), padding=(1,\
    \ 0, 0))\n              )\n            )\n          )\n          (1): SpatialTransformer(\n\
    \            (norm): GroupNorm(32, 640, eps=1e-06, affine=True)\n            (proj_in):\
    \ Linear(in_features=640, out_features=640, bias=True)\n            (transformer_blocks):\
    \ ModuleList(\n              (0): BasicTransformerBlock(\n                (attn1):\
    \ CrossAttention(\n                  (to_q): Linear(in_features=640, out_features=640,\
    \ bias=False)\n                  (to_k): Linear(in_features=640, out_features=640,\
    \ bias=False)\n                  (to_v): Linear(in_features=640, out_features=640,\
    \ bias=False)\n                  (to_out): Sequential(\n                    (0):\
    \ Linear(in_features=640, out_features=640, bias=True)\n                    (1):\
    \ Dropout(p=0.0, inplace=False)\n                  )\n                )\n    \
    \            (ff): FeedForward(\n                  (net): Sequential(\n      \
    \              (0): GEGLU(\n                      (proj): Linear(in_features=640,\
    \ out_features=5120, bias=True)\n                    )\n                    (1):\
    \ Dropout(p=0.0, inplace=False)\n                    (2): Linear(in_features=2560,\
    \ out_features=640, bias=True)\n                  )\n                )\n     \
    \           (attn2): CrossAttention(\n                  (to_q): Linear(in_features=640,\
    \ out_features=640, bias=False)\n                  (to_k): Linear(in_features=1024,\
    \ out_features=640, bias=False)\n                  (to_v): Linear(in_features=1024,\
    \ out_features=640, bias=False)\n                  (to_out): Sequential(\n   \
    \                 (0): Linear(in_features=640, out_features=640, bias=True)\n\
    \                    (1): Dropout(p=0.0, inplace=False)\n                  )\n\
    \                )\n                (norm1): LayerNorm((640,), eps=1e-05, elementwise_affine=True)\n\
    \                (norm2): LayerNorm((640,), eps=1e-05, elementwise_affine=True)\n\
    \                (norm3): LayerNorm((640,), eps=1e-05, elementwise_affine=True)\n\
    \              )\n            )\n            (proj_out): Linear(in_features=640,\
    \ out_features=640, bias=True)\n          )\n          (2): TemporalTransformer(\n\
    \            (norm): GroupNorm(32, 640, eps=1e-06, affine=True)\n            (proj_in):\
    \ Linear(in_features=640, out_features=640, bias=True)\n            (transformer_blocks):\
    \ ModuleList(\n              (0): BasicTransformerBlock(\n                (attn1):\
    \ CrossAttention(\n                  (to_q): Linear(in_features=640, out_features=640,\
    \ bias=False)\n                  (to_k): Linear(in_features=640, out_features=640,\
    \ bias=False)\n                  (to_v): Linear(in_features=640, out_features=640,\
    \ bias=False)\n                  (to_out): Sequential(\n                    (0):\
    \ Linear(in_features=640, out_features=640, bias=True)\n                    (1):\
    \ Dropout(p=0.0, inplace=False)\n                  )\n                )\n    \
    \            (ff): FeedForward(\n                  (net): Sequential(\n      \
    \              (0): GEGLU(\n                      (proj): Linear(in_features=640,\
    \ out_features=5120, bias=True)\n                    )\n                    (1):\
    \ Dropout(p=0.0, inplace=False)\n                    (2): Linear(in_features=2560,\
    \ out_features=640, bias=True)\n                  )\n                )\n     \
    \           (attn2): CrossAttention(\n                  (to_q): Linear(in_features=640,\
    \ out_features=640, bias=False)\n                  (to_k): Linear(in_features=640,\
    \ out_features=640, bias=False)\n                  (to_v): Linear(in_features=640,\
    \ out_features=640, bias=False)\n                  (to_out): Sequential(\n   \
    \                 (0): Linear(in_features=640, out_features=640, bias=True)\n\
    \                    (1): Dropout(p=0.0, inplace=False)\n                  )\n\
    \                )\n                (norm1): LayerNorm((640,), eps=1e-05, elementwise_affine=True)\n\
    \                (norm2): LayerNorm((640,), eps=1e-05, elementwise_affine=True)\n\
    \                (norm3): LayerNorm((640,), eps=1e-05, elementwise_affine=True)\n\
    \              )\n            )\n            (proj_out): Linear(in_features=640,\
    \ out_features=640, bias=True)\n          )\n        )\n        (7): TimestepEmbedSequential(\n\
    \          (0): ResBlock(\n            (in_layers): Sequential(\n            \
    \  (0): GroupNormSpecific(32, 1280, eps=1e-05, affine=True)\n              (1):\
    \ SiLU()\n              (2): Conv2d(1280, 640, kernel_size=(3, 3), stride=(1,\
    \ 1), padding=(1, 1))\n            )\n            (h_upd): Identity()\n      \
    \      (x_upd): Identity()\n            (emb_layers): Sequential(\n          \
    \    (0): SiLU()\n              (1): Linear(in_features=1280, out_features=640,\
    \ bias=True)\n            )\n            (out_layers): Sequential(\n         \
    \     (0): GroupNormSpecific(32, 640, eps=1e-05, affine=True)\n              (1):\
    \ SiLU()\n              (2): Dropout(p=0.0, inplace=False)\n              (3):\
    \ Conv2d(640, 640, kernel_size=(3, 3), stride=(1, 1), padding=(1, 1))\n      \
    \      )\n            (skip_connection): Conv2d(1280, 640, kernel_size=(1, 1),\
    \ stride=(1, 1))\n            (temopral_conv): TemporalConvBlock(\n          \
    \    (conv1): Sequential(\n                (0): GroupNorm(32, 640, eps=1e-05,\
    \ affine=True)\n                (1): SiLU()\n                (2): Conv3d(640,\
    \ 640, kernel_size=(3, 1, 1), stride=(1, 1, 1), padding=(1, 0, 0))\n         \
    \     )\n              (conv2): Sequential(\n                (0): GroupNorm(32,\
    \ 640, eps=1e-05, affine=True)\n                (1): SiLU()\n                (2):\
    \ Dropout(p=0.1, inplace=False)\n                (3): Conv3d(640, 640, kernel_size=(3,\
    \ 1, 1), stride=(1, 1, 1), padding=(1, 0, 0))\n              )\n             \
    \ (conv3): Sequential(\n                (0): GroupNorm(32, 640, eps=1e-05, affine=True)\n\
    \                (1): SiLU()\n                (2): Dropout(p=0.1, inplace=False)\n\
    \                (3): Conv3d(640, 640, kernel_size=(3, 1, 1), stride=(1, 1, 1),\
    \ padding=(1, 0, 0))\n              )\n              (conv4): Sequential(\n  \
    \              (0): GroupNorm(32, 640, eps=1e-05, affine=True)\n             \
    \   (1): SiLU()\n                (2): Dropout(p=0.1, inplace=False)\n        \
    \        (3): Conv3d(640, 640, kernel_size=(3, 1, 1), stride=(1, 1, 1), padding=(1,\
    \ 0, 0))\n              )\n            )\n          )\n          (1): SpatialTransformer(\n\
    \            (norm): GroupNorm(32, 640, eps=1e-06, affine=True)\n            (proj_in):\
    \ Linear(in_features=640, out_features=640, bias=True)\n            (transformer_blocks):\
    \ ModuleList(\n              (0): BasicTransformerBlock(\n                (attn1):\
    \ CrossAttention(\n                  (to_q): Linear(in_features=640, out_features=640,\
    \ bias=False)\n                  (to_k): Linear(in_features=640, out_features=640,\
    \ bias=False)\n                  (to_v): Linear(in_features=640, out_features=640,\
    \ bias=False)\n                  (to_out): Sequential(\n                    (0):\
    \ Linear(in_features=640, out_features=640, bias=True)\n                    (1):\
    \ Dropout(p=0.0, inplace=False)\n                  )\n                )\n    \
    \            (ff): FeedForward(\n                  (net): Sequential(\n      \
    \              (0): GEGLU(\n                      (proj): Linear(in_features=640,\
    \ out_features=5120, bias=True)\n                    )\n                    (1):\
    \ Dropout(p=0.0, inplace=False)\n                    (2): Linear(in_features=2560,\
    \ out_features=640, bias=True)\n                  )\n                )\n     \
    \           (attn2): CrossAttention(\n                  (to_q): Linear(in_features=640,\
    \ out_features=640, bias=False)\n                  (to_k): Linear(in_features=1024,\
    \ out_features=640, bias=False)\n                  (to_v): Linear(in_features=1024,\
    \ out_features=640, bias=False)\n                  (to_out): Sequential(\n   \
    \                 (0): Linear(in_features=640, out_features=640, bias=True)\n\
    \                    (1): Dropout(p=0.0, inplace=False)\n                  )\n\
    \                )\n                (norm1): LayerNorm((640,), eps=1e-05, elementwise_affine=True)\n\
    \                (norm2): LayerNorm((640,), eps=1e-05, elementwise_affine=True)\n\
    \                (norm3): LayerNorm((640,), eps=1e-05, elementwise_affine=True)\n\
    \              )\n            )\n            (proj_out): Linear(in_features=640,\
    \ out_features=640, bias=True)\n          )\n          (2): TemporalTransformer(\n\
    \            (norm): GroupNorm(32, 640, eps=1e-06, affine=True)\n            (proj_in):\
    \ Linear(in_features=640, out_features=640, bias=True)\n            (transformer_blocks):\
    \ ModuleList(\n              (0): BasicTransformerBlock(\n                (attn1):\
    \ CrossAttention(\n                  (to_q): Linear(in_features=640, out_features=640,\
    \ bias=False)\n                  (to_k): Linear(in_features=640, out_features=640,\
    \ bias=False)\n                  (to_v): Linear(in_features=640, out_features=640,\
    \ bias=False)\n                  (to_out): Sequential(\n                    (0):\
    \ Linear(in_features=640, out_features=640, bias=True)\n                    (1):\
    \ Dropout(p=0.0, inplace=False)\n                  )\n                )\n    \
    \            (ff): FeedForward(\n                  (net): Sequential(\n      \
    \              (0): GEGLU(\n                      (proj): Linear(in_features=640,\
    \ out_features=5120, bias=True)\n                    )\n                    (1):\
    \ Dropout(p=0.0, inplace=False)\n                    (2): Linear(in_features=2560,\
    \ out_features=640, bias=True)\n                  )\n                )\n     \
    \           (attn2): CrossAttention(\n                  (to_q): Linear(in_features=640,\
    \ out_features=640, bias=False)\n                  (to_k): Linear(in_features=640,\
    \ out_features=640, bias=False)\n                  (to_v): Linear(in_features=640,\
    \ out_features=640, bias=False)\n                  (to_out): Sequential(\n   \
    \                 (0): Linear(in_features=640, out_features=640, bias=True)\n\
    \                    (1): Dropout(p=0.0, inplace=False)\n                  )\n\
    \                )\n                (norm1): LayerNorm((640,), eps=1e-05, elementwise_affine=True)\n\
    \                (norm2): LayerNorm((640,), eps=1e-05, elementwise_affine=True)\n\
    \                (norm3): LayerNorm((640,), eps=1e-05, elementwise_affine=True)\n\
    \              )\n            )\n            (proj_out): Linear(in_features=640,\
    \ out_features=640, bias=True)\n          )\n        )\n        (8): TimestepEmbedSequential(\n\
    \          (0): ResBlock(\n            (in_layers): Sequential(\n            \
    \  (0): GroupNormSpecific(32, 960, eps=1e-05, affine=True)\n              (1):\
    \ SiLU()\n              (2): Conv2d(960, 640, kernel_size=(3, 3), stride=(1, 1),\
    \ padding=(1, 1))\n            )\n            (h_upd): Identity()\n          \
    \  (x_upd): Identity()\n            (emb_layers): Sequential(\n              (0):\
    \ SiLU()\n              (1): Linear(in_features=1280, out_features=640, bias=True)\n\
    \            )\n            (out_layers): Sequential(\n              (0): GroupNormSpecific(32,\
    \ 640, eps=1e-05, affine=True)\n              (1): SiLU()\n              (2):\
    \ Dropout(p=0.0, inplace=False)\n              (3): Conv2d(640, 640, kernel_size=(3,\
    \ 3), stride=(1, 1), padding=(1, 1))\n            )\n            (skip_connection):\
    \ Conv2d(960, 640, kernel_size=(1, 1), stride=(1, 1))\n            (temopral_conv):\
    \ TemporalConvBlock(\n              (conv1): Sequential(\n                (0):\
    \ GroupNorm(32, 640, eps=1e-05, affine=True)\n                (1): SiLU()\n  \
    \              (2): Conv3d(640, 640, kernel_size=(3, 1, 1), stride=(1, 1, 1),\
    \ padding=(1, 0, 0))\n              )\n              (conv2): Sequential(\n  \
    \              (0): GroupNorm(32, 640, eps=1e-05, affine=True)\n             \
    \   (1): SiLU()\n                (2): Dropout(p=0.1, inplace=False)\n        \
    \        (3): Conv3d(640, 640, kernel_size=(3, 1, 1), stride=(1, 1, 1), padding=(1,\
    \ 0, 0))\n              )\n              (conv3): Sequential(\n              \
    \  (0): GroupNorm(32, 640, eps=1e-05, affine=True)\n                (1): SiLU()\n\
    \                (2): Dropout(p=0.1, inplace=False)\n                (3): Conv3d(640,\
    \ 640, kernel_size=(3, 1, 1), stride=(1, 1, 1), padding=(1, 0, 0))\n         \
    \     )\n              (conv4): Sequential(\n                (0): GroupNorm(32,\
    \ 640, eps=1e-05, affine=True)\n                (1): SiLU()\n                (2):\
    \ Dropout(p=0.1, inplace=False)\n                (3): Conv3d(640, 640, kernel_size=(3,\
    \ 1, 1), stride=(1, 1, 1), padding=(1, 0, 0))\n              )\n            )\n\
    \          )\n          (1): SpatialTransformer(\n            (norm): GroupNorm(32,\
    \ 640, eps=1e-06, affine=True)\n            (proj_in): Linear(in_features=640,\
    \ out_features=640, bias=True)\n            (transformer_blocks): ModuleList(\n\
    \              (0): BasicTransformerBlock(\n                (attn1): CrossAttention(\n\
    \                  (to_q): Linear(in_features=640, out_features=640, bias=False)\n\
    \                  (to_k): Linear(in_features=640, out_features=640, bias=False)\n\
    \                  (to_v): Linear(in_features=640, out_features=640, bias=False)\n\
    \                  (to_out): Sequential(\n                    (0): Linear(in_features=640,\
    \ out_features=640, bias=True)\n                    (1): Dropout(p=0.0, inplace=False)\n\
    \                  )\n                )\n                (ff): FeedForward(\n\
    \                  (net): Sequential(\n                    (0): GEGLU(\n     \
    \                 (proj): Linear(in_features=640, out_features=5120, bias=True)\n\
    \                    )\n                    (1): Dropout(p=0.0, inplace=False)\n\
    \                    (2): Linear(in_features=2560, out_features=640, bias=True)\n\
    \                  )\n                )\n                (attn2): CrossAttention(\n\
    \                  (to_q): Linear(in_features=640, out_features=640, bias=False)\n\
    \                  (to_k): Linear(in_features=1024, out_features=640, bias=False)\n\
    \                  (to_v): Linear(in_features=1024, out_features=640, bias=False)\n\
    \                  (to_out): Sequential(\n                    (0): Linear(in_features=640,\
    \ out_features=640, bias=True)\n                    (1): Dropout(p=0.0, inplace=False)\n\
    \                  )\n                )\n                (norm1): LayerNorm((640,),\
    \ eps=1e-05, elementwise_affine=True)\n                (norm2): LayerNorm((640,),\
    \ eps=1e-05, elementwise_affine=True)\n                (norm3): LayerNorm((640,),\
    \ eps=1e-05, elementwise_affine=True)\n              )\n            )\n      \
    \      (proj_out): Linear(in_features=640, out_features=640, bias=True)\n    \
    \      )\n          (2): TemporalTransformer(\n            (norm): GroupNorm(32,\
    \ 640, eps=1e-06, affine=True)\n            (proj_in): Linear(in_features=640,\
    \ out_features=640, bias=True)\n            (transformer_blocks): ModuleList(\n\
    \              (0): BasicTransformerBlock(\n                (attn1): CrossAttention(\n\
    \                  (to_q): Linear(in_features=640, out_features=640, bias=False)\n\
    \                  (to_k): Linear(in_features=640, out_features=640, bias=False)\n\
    \                  (to_v): Linear(in_features=640, out_features=640, bias=False)\n\
    \                  (to_out): Sequential(\n                    (0): Linear(in_features=640,\
    \ out_features=640, bias=True)\n                    (1): Dropout(p=0.0, inplace=False)\n\
    \                  )\n                )\n                (ff): FeedForward(\n\
    \                  (net): Sequential(\n                    (0): GEGLU(\n     \
    \                 (proj): Linear(in_features=640, out_features=5120, bias=True)\n\
    \                    )\n                    (1): Dropout(p=0.0, inplace=False)\n\
    \                    (2): Linear(in_features=2560, out_features=640, bias=True)\n\
    \                  )\n                )\n                (attn2): CrossAttention(\n\
    \                  (to_q): Linear(in_features=640, out_features=640, bias=False)\n\
    \                  (to_k): Linear(in_features=640, out_features=640, bias=False)\n\
    \                  (to_v): Linear(in_features=640, out_features=640, bias=False)\n\
    \                  (to_out): Sequential(\n                    (0): Linear(in_features=640,\
    \ out_features=640, bias=True)\n                    (1): Dropout(p=0.0, inplace=False)\n\
    \                  )\n                )\n                (norm1): LayerNorm((640,),\
    \ eps=1e-05, elementwise_affine=True)\n                (norm2): LayerNorm((640,),\
    \ eps=1e-05, elementwise_affine=True)\n                (norm3): LayerNorm((640,),\
    \ eps=1e-05, elementwise_affine=True)\n              )\n            )\n      \
    \      (proj_out): Linear(in_features=640, out_features=640, bias=True)\n    \
    \      )\n          (3): Upsample(\n            (conv): Conv2d(640, 640, kernel_size=(3,\
    \ 3), stride=(1, 1), padding=(1, 1))\n          )\n        )\n        (9): TimestepEmbedSequential(\n\
    \          (0): ResBlock(\n            (in_layers): Sequential(\n            \
    \  (0): GroupNormSpecific(32, 960, eps=1e-05, affine=True)\n              (1):\
    \ SiLU()\n              (2): Conv2d(960, 320, kernel_size=(3, 3), stride=(1, 1),\
    \ padding=(1, 1))\n            )\n            (h_upd): Identity()\n          \
    \  (x_upd): Identity()\n            (emb_layers): Sequential(\n              (0):\
    \ SiLU()\n              (1): Linear(in_features=1280, out_features=320, bias=True)\n\
    \            )\n            (out_layers): Sequential(\n              (0): GroupNormSpecific(32,\
    \ 320, eps=1e-05, affine=True)\n              (1): SiLU()\n              (2):\
    \ Dropout(p=0.0, inplace=False)\n              (3): Conv2d(320, 320, kernel_size=(3,\
    \ 3), stride=(1, 1), padding=(1, 1))\n            )\n            (skip_connection):\
    \ Conv2d(960, 320, kernel_size=(1, 1), stride=(1, 1))\n            (temopral_conv):\
    \ TemporalConvBlock(\n              (conv1): Sequential(\n                (0):\
    \ GroupNorm(32, 320, eps=1e-05, affine=True)\n                (1): SiLU()\n  \
    \              (2): Conv3d(320, 320, kernel_size=(3, 1, 1), stride=(1, 1, 1),\
    \ padding=(1, 0, 0))\n              )\n              (conv2): Sequential(\n  \
    \              (0): GroupNorm(32, 320, eps=1e-05, affine=True)\n             \
    \   (1): SiLU()\n                (2): Dropout(p=0.1, inplace=False)\n        \
    \        (3): Conv3d(320, 320, kernel_size=(3, 1, 1), stride=(1, 1, 1), padding=(1,\
    \ 0, 0))\n              )\n              (conv3): Sequential(\n              \
    \  (0): GroupNorm(32, 320, eps=1e-05, affine=True)\n                (1): SiLU()\n\
    \                (2): Dropout(p=0.1, inplace=False)\n                (3): Conv3d(320,\
    \ 320, kernel_size=(3, 1, 1), stride=(1, 1, 1), padding=(1, 0, 0))\n         \
    \     )\n              (conv4): Sequential(\n                (0): GroupNorm(32,\
    \ 320, eps=1e-05, affine=True)\n                (1): SiLU()\n                (2):\
    \ Dropout(p=0.1, inplace=False)\n                (3): Conv3d(320, 320, kernel_size=(3,\
    \ 1, 1), stride=(1, 1, 1), padding=(1, 0, 0))\n              )\n            )\n\
    \          )\n          (1): SpatialTransformer(\n            (norm): GroupNorm(32,\
    \ 320, eps=1e-06, affine=True)\n            (proj_in): Linear(in_features=320,\
    \ out_features=320, bias=True)\n            (transformer_blocks): ModuleList(\n\
    \              (0): BasicTransformerBlock(\n                (attn1): CrossAttention(\n\
    \                  (to_q): Linear(in_features=320, out_features=320, bias=False)\n\
    \                  (to_k): Linear(in_features=320, out_features=320, bias=False)\n\
    \                  (to_v): Linear(in_features=320, out_features=320, bias=False)\n\
    \                  (to_out): Sequential(\n                    (0): Linear(in_features=320,\
    \ out_features=320, bias=True)\n                    (1): Dropout(p=0.0, inplace=False)\n\
    \                  )\n                )\n                (ff): FeedForward(\n\
    \                  (net): Sequential(\n                    (0): GEGLU(\n     \
    \                 (proj): Linear(in_features=320, out_features=2560, bias=True)\n\
    \                    )\n                    (1): Dropout(p=0.0, inplace=False)\n\
    \                    (2): Linear(in_features=1280, out_features=320, bias=True)\n\
    \                  )\n                )\n                (attn2): CrossAttention(\n\
    \                  (to_q): Linear(in_features=320, out_features=320, bias=False)\n\
    \                  (to_k): Linear(in_features=1024, out_features=320, bias=False)\n\
    \                  (to_v): Linear(in_features=1024, out_features=320, bias=False)\n\
    \                  (to_out): Sequential(\n                    (0): Linear(in_features=320,\
    \ out_features=320, bias=True)\n                    (1): Dropout(p=0.0, inplace=False)\n\
    \                  )\n                )\n                (norm1): LayerNorm((320,),\
    \ eps=1e-05, elementwise_affine=True)\n                (norm2): LayerNorm((320,),\
    \ eps=1e-05, elementwise_affine=True)\n                (norm3): LayerNorm((320,),\
    \ eps=1e-05, elementwise_affine=True)\n              )\n            )\n      \
    \      (proj_out): Linear(in_features=320, out_features=320, bias=True)\n    \
    \      )\n          (2): TemporalTransformer(\n            (norm): GroupNorm(32,\
    \ 320, eps=1e-06, affine=True)\n            (proj_in): Linear(in_features=320,\
    \ out_features=320, bias=True)\n            (transformer_blocks): ModuleList(\n\
    \              (0): BasicTransformerBlock(\n                (attn1): CrossAttention(\n\
    \                  (to_q): Linear(in_features=320, out_features=320, bias=False)\n\
    \                  (to_k): Linear(in_features=320, out_features=320, bias=False)\n\
    \                  (to_v): Linear(in_features=320, out_features=320, bias=False)\n\
    \                  (to_out): Sequential(\n                    (0): Linear(in_features=320,\
    \ out_features=320, bias=True)\n                    (1): Dropout(p=0.0, inplace=False)\n\
    \                  )\n                )\n                (ff): FeedForward(\n\
    \                  (net): Sequential(\n                    (0): GEGLU(\n     \
    \                 (proj): Linear(in_features=320, out_features=2560, bias=True)\n\
    \                    )\n                    (1): Dropout(p=0.0, inplace=False)\n\
    \                    (2): Linear(in_features=1280, out_features=320, bias=True)\n\
    \                  )\n                )\n                (attn2): CrossAttention(\n\
    \                  (to_q): Linear(in_features=320, out_features=320, bias=False)\n\
    \                  (to_k): Linear(in_features=320, out_features=320, bias=False)\n\
    \                  (to_v): Linear(in_features=320, out_features=320, bias=False)\n\
    \                  (to_out): Sequential(\n                    (0): Linear(in_features=320,\
    \ out_features=320, bias=True)\n                    (1): Dropout(p=0.0, inplace=False)\n\
    \                  )\n                )\n                (norm1): LayerNorm((320,),\
    \ eps=1e-05, elementwise_affine=True)\n                (norm2): LayerNorm((320,),\
    \ eps=1e-05, elementwise_affine=True)\n                (norm3): LayerNorm((320,),\
    \ eps=1e-05, elementwise_affine=True)\n              )\n            )\n      \
    \      (proj_out): Linear(in_features=320, out_features=320, bias=True)\n    \
    \      )\n        )\n        (10-11): 2 x TimestepEmbedSequential(\n         \
    \ (0): ResBlock(\n            (in_layers): Sequential(\n              (0): GroupNormSpecific(32,\
    \ 640, eps=1e-05, affine=True)\n              (1): SiLU()\n              (2):\
    \ Conv2d(640, 320, kernel_size=(3, 3), stride=(1, 1), padding=(1, 1))\n      \
    \      )\n            (h_upd): Identity()\n            (x_upd): Identity()\n \
    \           (emb_layers): Sequential(\n              (0): SiLU()\n           \
    \   (1): Linear(in_features=1280, out_features=320, bias=True)\n            )\n\
    \            (out_layers): Sequential(\n              (0): GroupNormSpecific(32,\
    \ 320, eps=1e-05, affine=True)\n              (1): SiLU()\n              (2):\
    \ Dropout(p=0.0, inplace=False)\n              (3): Conv2d(320, 320, kernel_size=(3,\
    \ 3), stride=(1, 1), padding=(1, 1))\n            )\n            (skip_connection):\
    \ Conv2d(640, 320, kernel_size=(1, 1), stride=(1, 1))\n            (temopral_conv):\
    \ TemporalConvBlock(\n              (conv1): Sequential(\n                (0):\
    \ GroupNorm(32, 320, eps=1e-05, affine=True)\n                (1): SiLU()\n  \
    \              (2): Conv3d(320, 320, kernel_size=(3, 1, 1), stride=(1, 1, 1),\
    \ padding=(1, 0, 0))\n              )\n              (conv2): Sequential(\n  \
    \              (0): GroupNorm(32, 320, eps=1e-05, affine=True)\n             \
    \   (1): SiLU()\n                (2): Dropout(p=0.1, inplace=False)\n        \
    \        (3): Conv3d(320, 320, kernel_size=(3, 1, 1), stride=(1, 1, 1), padding=(1,\
    \ 0, 0))\n              )\n              (conv3): Sequential(\n              \
    \  (0): GroupNorm(32, 320, eps=1e-05, affine=True)\n                (1): SiLU()\n\
    \                (2): Dropout(p=0.1, inplace=False)\n                (3): Conv3d(320,\
    \ 320, kernel_size=(3, 1, 1), stride=(1, 1, 1), padding=(1, 0, 0))\n         \
    \     )\n              (conv4): Sequential(\n                (0): GroupNorm(32,\
    \ 320, eps=1e-05, affine=True)\n                (1): SiLU()\n                (2):\
    \ Dropout(p=0.1, inplace=False)\n                (3): Conv3d(320, 320, kernel_size=(3,\
    \ 1, 1), stride=(1, 1, 1), padding=(1, 0, 0))\n              )\n            )\n\
    \          )\n          (1): SpatialTransformer(\n            (norm): GroupNorm(32,\
    \ 320, eps=1e-06, affine=True)\n            (proj_in): Linear(in_features=320,\
    \ out_features=320, bias=True)\n            (transformer_blocks): ModuleList(\n\
    \              (0): BasicTransformerBlock(\n                (attn1): CrossAttention(\n\
    \                  (to_q): Linear(in_features=320, out_features=320, bias=False)\n\
    \                  (to_k): Linear(in_features=320, out_features=320, bias=False)\n\
    \                  (to_v): Linear(in_features=320, out_features=320, bias=False)\n\
    \                  (to_out): Sequential(\n                    (0): Linear(in_features=320,\
    \ out_features=320, bias=True)\n                    (1): Dropout(p=0.0, inplace=False)\n\
    \                  )\n                )\n                (ff): FeedForward(\n\
    \                  (net): Sequential(\n                    (0): GEGLU(\n     \
    \                 (proj): Linear(in_features=320, out_features=2560, bias=True)\n\
    \                    )\n                    (1): Dropout(p=0.0, inplace=False)\n\
    \                    (2): Linear(in_features=1280, out_features=320, bias=True)\n\
    \                  )\n                )\n                (attn2): CrossAttention(\n\
    \                  (to_q): Linear(in_features=320, out_features=320, bias=False)\n\
    \                  (to_k): Linear(in_features=1024, out_features=320, bias=False)\n\
    \                  (to_v): Linear(in_features=1024, out_features=320, bias=False)\n\
    \                  (to_out): Sequential(\n                    (0): Linear(in_features=320,\
    \ out_features=320, bias=True)\n                    (1): Dropout(p=0.0, inplace=False)\n\
    \                  )\n                )\n                (norm1): LayerNorm((320,),\
    \ eps=1e-05, elementwise_affine=True)\n                (norm2): LayerNorm((320,),\
    \ eps=1e-05, elementwise_affine=True)\n                (norm3): LayerNorm((320,),\
    \ eps=1e-05, elementwise_affine=True)\n              )\n            )\n      \
    \      (proj_out): Linear(in_features=320, out_features=320, bias=True)\n    \
    \      )\n          (2): TemporalTransformer(\n            (norm): GroupNorm(32,\
    \ 320, eps=1e-06, affine=True)\n            (proj_in): Linear(in_features=320,\
    \ out_features=320, bias=True)\n            (transformer_blocks): ModuleList(\n\
    \              (0): BasicTransformerBlock(\n                (attn1): CrossAttention(\n\
    \                  (to_q): Linear(in_features=320, out_features=320, bias=False)\n\
    \                  (to_k): Linear(in_features=320, out_features=320, bias=False)\n\
    \                  (to_v): Linear(in_features=320, out_features=320, bias=False)\n\
    \                  (to_out): Sequential(\n                    (0): Linear(in_features=320,\
    \ out_features=320, bias=True)\n                    (1): Dropout(p=0.0, inplace=False)\n\
    \                  )\n                )\n                (ff): FeedForward(\n\
    \                  (net): Sequential(\n                    (0): GEGLU(\n     \
    \                 (proj): Linear(in_features=320, out_features=2560, bias=True)\n\
    \                    )\n                    (1): Dropout(p=0.0, inplace=False)\n\
    \                    (2): Linear(in_features=1280, out_features=320, bias=True)\n\
    \                  )\n                )\n                (attn2): CrossAttention(\n\
    \                  (to_q): Linear(in_features=320, out_features=320, bias=False)\n\
    \                  (to_k): Linear(in_features=320, out_features=320, bias=False)\n\
    \                  (to_v): Linear(in_features=320, out_features=320, bias=False)\n\
    \                  (to_out): Sequential(\n                    (0): Linear(in_features=320,\
    \ out_features=320, bias=True)\n                    (1): Dropout(p=0.0, inplace=False)\n\
    \                  )\n                )\n                (norm1): LayerNorm((320,),\
    \ eps=1e-05, elementwise_affine=True)\n                (norm2): LayerNorm((320,),\
    \ eps=1e-05, elementwise_affine=True)\n                (norm3): LayerNorm((320,),\
    \ eps=1e-05, elementwise_affine=True)\n              )\n            )\n      \
    \      (proj_out): Linear(in_features=320, out_features=320, bias=True)\n    \
    \      )\n        )\n      )\n      (out): Sequential(\n        (0): GroupNormSpecific(32,\
    \ 320, eps=1e-05, affine=True)\n        (1): SiLU()\n        (2): Conv2d(320,\
    \ 4, kernel_size=(3, 3), stride=(1, 1), padding=(1, 1))\n      )\n    )\n  )\n\
    \  (first_stage_model): AutoencoderKL(\n    (encoder): Encoder(\n      (conv_in):\
    \ Conv2d(3, 128, kernel_size=(3, 3), stride=(1, 1), padding=(1, 1))\n      (down):\
    \ ModuleList(\n        (0): Module(\n          (block): ModuleList(\n        \
    \    (0-1): 2 x ResnetBlock(\n              (norm1): GroupNorm(32, 128, eps=1e-06,\
    \ affine=True)\n              (conv1): Conv2d(128, 128, kernel_size=(3, 3), stride=(1,\
    \ 1), padding=(1, 1))\n              (norm2): GroupNorm(32, 128, eps=1e-06, affine=True)\n\
    \              (dropout): Dropout(p=0.0, inplace=False)\n              (conv2):\
    \ Conv2d(128, 128, kernel_size=(3, 3), stride=(1, 1), padding=(1, 1))\n      \
    \      )\n          )\n          (attn): ModuleList()\n          (downsample):\
    \ Downsample(\n            (conv): Conv2d(128, 128, kernel_size=(3, 3), stride=(2,\
    \ 2))\n          )\n        )\n        (1): Module(\n          (block): ModuleList(\n\
    \            (0): ResnetBlock(\n              (norm1): GroupNorm(32, 128, eps=1e-06,\
    \ affine=True)\n              (conv1): Conv2d(128, 256, kernel_size=(3, 3), stride=(1,\
    \ 1), padding=(1, 1))\n              (norm2): GroupNorm(32, 256, eps=1e-06, affine=True)\n\
    \              (dropout): Dropout(p=0.0, inplace=False)\n              (conv2):\
    \ Conv2d(256, 256, kernel_size=(3, 3), stride=(1, 1), padding=(1, 1))\n      \
    \        (nin_shortcut): Conv2d(128, 256, kernel_size=(1, 1), stride=(1, 1))\n\
    \            )\n            (1): ResnetBlock(\n              (norm1): GroupNorm(32,\
    \ 256, eps=1e-06, affine=True)\n              (conv1): Conv2d(256, 256, kernel_size=(3,\
    \ 3), stride=(1, 1), padding=(1, 1))\n              (norm2): GroupNorm(32, 256,\
    \ eps=1e-06, affine=True)\n              (dropout): Dropout(p=0.0, inplace=False)\n\
    \              (conv2): Conv2d(256, 256, kernel_size=(3, 3), stride=(1, 1), padding=(1,\
    \ 1))\n            )\n          )\n          (attn): ModuleList()\n          (downsample):\
    \ Downsample(\n            (conv): Conv2d(256, 256, kernel_size=(3, 3), stride=(2,\
    \ 2))\n          )\n        )\n        (2): Module(\n          (block): ModuleList(\n\
    \            (0): ResnetBlock(\n              (norm1): GroupNorm(32, 256, eps=1e-06,\
    \ affine=True)\n              (conv1): Conv2d(256, 512, kernel_size=(3, 3), stride=(1,\
    \ 1), padding=(1, 1))\n              (norm2): GroupNorm(32, 512, eps=1e-06, affine=True)\n\
    \              (dropout): Dropout(p=0.0, inplace=False)\n              (conv2):\
    \ Conv2d(512, 512, kernel_size=(3, 3), stride=(1, 1), padding=(1, 1))\n      \
    \        (nin_shortcut): Conv2d(256, 512, kernel_size=(1, 1), stride=(1, 1))\n\
    \            )\n            (1): ResnetBlock(\n              (norm1): GroupNorm(32,\
    \ 512, eps=1e-06, affine=True)\n              (conv1): Conv2d(512, 512, kernel_size=(3,\
    \ 3), stride=(1, 1), padding=(1, 1))\n              (norm2): GroupNorm(32, 512,\
    \ eps=1e-06, affine=True)\n              (dropout): Dropout(p=0.0, inplace=False)\n\
    \              (conv2): Conv2d(512, 512, kernel_size=(3, 3), stride=(1, 1), padding=(1,\
    \ 1))\n            )\n          )\n          (attn): ModuleList()\n          (downsample):\
    \ Downsample(\n            (conv): Conv2d(512, 512, kernel_size=(3, 3), stride=(2,\
    \ 2))\n          )\n        )\n        (3): Module(\n          (block): ModuleList(\n\
    \            (0-1): 2 x ResnetBlock(\n              (norm1): GroupNorm(32, 512,\
    \ eps=1e-06, affine=True)\n              (conv1): Conv2d(512, 512, kernel_size=(3,\
    \ 3), stride=(1, 1), padding=(1, 1))\n              (norm2): GroupNorm(32, 512,\
    \ eps=1e-06, affine=True)\n              (dropout): Dropout(p=0.0, inplace=False)\n\
    \              (conv2): Conv2d(512, 512, kernel_size=(3, 3), stride=(1, 1), padding=(1,\
    \ 1))\n            )\n          )\n          (attn): ModuleList()\n        )\n\
    \      )\n      (mid): Module(\n        (block_1): ResnetBlock(\n          (norm1):\
    \ GroupNorm(32, 512, eps=1e-06, affine=True)\n          (conv1): Conv2d(512, 512,\
    \ kernel_size=(3, 3), stride=(1, 1), padding=(1, 1))\n          (norm2): GroupNorm(32,\
    \ 512, eps=1e-06, affine=True)\n          (dropout): Dropout(p=0.0, inplace=False)\n\
    \          (conv2): Conv2d(512, 512, kernel_size=(3, 3), stride=(1, 1), padding=(1,\
    \ 1))\n        )\n        (attn_1): AttnBlock(\n          (norm): GroupNorm(32,\
    \ 512, eps=1e-06, affine=True)\n          (q): Conv2d(512, 512, kernel_size=(1,\
    \ 1), stride=(1, 1))\n          (k): Conv2d(512, 512, kernel_size=(1, 1), stride=(1,\
    \ 1))\n          (v): Conv2d(512, 512, kernel_size=(1, 1), stride=(1, 1))\n  \
    \        (proj_out): Conv2d(512, 512, kernel_size=(1, 1), stride=(1, 1))\n   \
    \     )\n        (block_2): ResnetBlock(\n          (norm1): GroupNorm(32, 512,\
    \ eps=1e-06, affine=True)\n          (conv1): Conv2d(512, 512, kernel_size=(3,\
    \ 3), stride=(1, 1), padding=(1, 1))\n          (norm2): GroupNorm(32, 512, eps=1e-06,\
    \ affine=True)\n          (dropout): Dropout(p=0.0, inplace=False)\n         \
    \ (conv2): Conv2d(512, 512, kernel_size=(3, 3), stride=(1, 1), padding=(1, 1))\n\
    \        )\n      )\n      (norm_out): GroupNorm(32, 512, eps=1e-06, affine=True)\n\
    \      (conv_out): Conv2d(512, 8, kernel_size=(3, 3), stride=(1, 1), padding=(1,\
    \ 1))\n    )\n    (decoder): Decoder(\n      (conv_in): Conv2d(4, 512, kernel_size=(3,\
    \ 3), stride=(1, 1), padding=(1, 1))\n      (mid): Module(\n        (block_1):\
    \ ResnetBlock(\n          (norm1): GroupNorm(32, 512, eps=1e-06, affine=True)\n\
    \          (conv1): Conv2d(512, 512, kernel_size=(3, 3), stride=(1, 1), padding=(1,\
    \ 1))\n          (norm2): GroupNorm(32, 512, eps=1e-06, affine=True)\n       \
    \   (dropout): Dropout(p=0.0, inplace=False)\n          (conv2): Conv2d(512, 512,\
    \ kernel_size=(3, 3), stride=(1, 1), padding=(1, 1))\n        )\n        (attn_1):\
    \ AttnBlock(\n          (norm): GroupNorm(32, 512, eps=1e-06, affine=True)\n \
    \         (q): Conv2d(512, 512, kernel_size=(1, 1), stride=(1, 1))\n         \
    \ (k): Conv2d(512, 512, kernel_size=(1, 1), stride=(1, 1))\n          (v): Conv2d(512,\
    \ 512, kernel_size=(1, 1), stride=(1, 1))\n          (proj_out): Conv2d(512, 512,\
    \ kernel_size=(1, 1), stride=(1, 1))\n        )\n        (block_2): ResnetBlock(\n\
    \          (norm1): GroupNorm(32, 512, eps=1e-06, affine=True)\n          (conv1):\
    \ Conv2d(512, 512, kernel_size=(3, 3), stride=(1, 1), padding=(1, 1))\n      \
    \    (norm2): GroupNorm(32, 512, eps=1e-06, affine=True)\n          (dropout):\
    \ Dropout(p=0.0, inplace=False)\n          (conv2): Conv2d(512, 512, kernel_size=(3,\
    \ 3), stride=(1, 1), padding=(1, 1))\n        )\n      )\n      (up): ModuleList(\n\
    \        (0): Module(\n          (block): ModuleList(\n            (0): ResnetBlock(\n\
    \              (norm1): GroupNorm(32, 256, eps=1e-06, affine=True)\n         \
    \     (conv1): Conv2d(256, 128, kernel_size=(3, 3), stride=(1, 1), padding=(1,\
    \ 1))\n              (norm2): GroupNorm(32, 128, eps=1e-06, affine=True)\n   \
    \           (dropout): Dropout(p=0.0, inplace=False)\n              (conv2): Conv2d(128,\
    \ 128, kernel_size=(3, 3), stride=(1, 1), padding=(1, 1))\n              (nin_shortcut):\
    \ Conv2d(256, 128, kernel_size=(1, 1), stride=(1, 1))\n            )\n       \
    \     (1-2): 2 x ResnetBlock(\n              (norm1): GroupNorm(32, 128, eps=1e-06,\
    \ affine=True)\n              (conv1): Conv2d(128, 128, kernel_size=(3, 3), stride=(1,\
    \ 1), padding=(1, 1))\n              (norm2): GroupNorm(32, 128, eps=1e-06, affine=True)\n\
    \              (dropout): Dropout(p=0.0, inplace=False)\n              (conv2):\
    \ Conv2d(128, 128, kernel_size=(3, 3), stride=(1, 1), padding=(1, 1))\n      \
    \      )\n          )\n          (attn): ModuleList()\n        )\n        (1):\
    \ Module(\n          (block): ModuleList(\n            (0): ResnetBlock(\n   \
    \           (norm1): GroupNorm(32, 512, eps=1e-06, affine=True)\n            \
    \  (conv1): Conv2d(512, 256, kernel_size=(3, 3), stride=(1, 1), padding=(1, 1))\n\
    \              (norm2): GroupNorm(32, 256, eps=1e-06, affine=True)\n         \
    \     (dropout): Dropout(p=0.0, inplace=False)\n              (conv2): Conv2d(256,\
    \ 256, kernel_size=(3, 3), stride=(1, 1), padding=(1, 1))\n              (nin_shortcut):\
    \ Conv2d(512, 256, kernel_size=(1, 1), stride=(1, 1))\n            )\n       \
    \     (1-2): 2 x ResnetBlock(\n              (norm1): GroupNorm(32, 256, eps=1e-06,\
    \ affine=True)\n              (conv1): Conv2d(256, 256, kernel_size=(3, 3), stride=(1,\
    \ 1), padding=(1, 1))\n              (norm2): GroupNorm(32, 256, eps=1e-06, affine=True)\n\
    \              (dropout): Dropout(p=0.0, inplace=False)\n              (conv2):\
    \ Conv2d(256, 256, kernel_size=(3, 3), stride=(1, 1), padding=(1, 1))\n      \
    \      )\n          )\n          (attn): ModuleList()\n          (upsample): Upsample(\n\
    \            (conv): Conv2d(256, 256, kernel_size=(3, 3), stride=(1, 1), padding=(1,\
    \ 1))\n          )\n        )\n        (2-3): 2 x Module(\n          (block):\
    \ ModuleList(\n            (0-2): 3 x ResnetBlock(\n              (norm1): GroupNorm(32,\
    \ 512, eps=1e-06, affine=True)\n              (conv1): Conv2d(512, 512, kernel_size=(3,\
    \ 3), stride=(1, 1), padding=(1, 1))\n              (norm2): GroupNorm(32, 512,\
    \ eps=1e-06, affine=True)\n              (dropout): Dropout(p=0.0, inplace=False)\n\
    \              (conv2): Conv2d(512, 512, kernel_size=(3, 3), stride=(1, 1), padding=(1,\
    \ 1))\n            )\n          )\n          (attn): ModuleList()\n          (upsample):\
    \ Upsample(\n            (conv): Conv2d(512, 512, kernel_size=(3, 3), stride=(1,\
    \ 1), padding=(1, 1))\n          )\n        )\n      )\n      (norm_out): GroupNorm(32,\
    \ 128, eps=1e-06, affine=True)\n      (conv_out): Conv2d(128, 3, kernel_size=(3,\
    \ 3), stride=(1, 1), padding=(1, 1))\n    )\n    (loss): Identity()\n    (quant_conv):\
    \ Conv2d(8, 8, kernel_size=(1, 1), stride=(1, 1))\n    (post_quant_conv): Conv2d(4,\
    \ 4, kernel_size=(1, 1), stride=(1, 1))\n  )\n  (cond_stage_model): FrozenOpenCLIPEmbedder(\n\
    \    (model): CLIP(\n      (transformer): Transformer(\n        (resblocks): ModuleList(\n\
    \          (0-23): 24 x ResidualAttentionBlock(\n            (ln_1): LayerNorm((1024,),\
    \ eps=1e-05, elementwise_affine=True)\n            (attn): MultiheadAttention(\n\
    \              (out_proj): NonDynamicallyQuantizableLinear(in_features=1024, out_features=1024,\
    \ bias=True)\n            )\n            (ls_1): Identity()\n            (ln_2):\
    \ LayerNorm((1024,), eps=1e-05, elementwise_affine=True)\n            (mlp): Sequential(\n\
    \              (c_fc): Linear(in_features=1024, out_features=4096, bias=True)\n\
    \              (gelu): GELU(approximate='none')\n              (c_proj): Linear(in_features=4096,\
    \ out_features=1024, bias=True)\n            )\n            (ls_2): Identity()\n\
    \          )\n        )\n      )\n      (token_embedding): Embedding(49408, 1024)\n\
    \      (ln_final): LayerNorm((1024,), eps=1e-05, elementwise_affine=True)\n  \
    \  )\n  )\n)"
name:
  desc: null
  value: inference_t2v_512_v2.0
folder_name:
  desc: null
  value: inference_t2v_512_v2.0-2024-08-06T03-58-39
output_dir:
  desc: null
  value: outputs/inference_t2v_512_v2.0-2024-08-06T03-58-39
args:
  desc: null
  value: Namespace(adam_beta1=0.9, adam_beta2=0.999, adam_epsilon=1e-08, adam_weight_decay=0.01,
    bs=2, cfg_random_null_text=True, cfg_random_null_text_ratio=0.1, checkpointing_epochs=5,
…
